model.pth (torch, 314357 bytes, 16 tensors)

variational.shared_net.0.weight f4 [100, 211]
000000 5b 40 ac bc 19 45 24 bd 3c d1 b4 3c b5 60 75 bc
       -0.02102678 -0.04010496 0.022072427 -0.01497667
000010 04 03 7f bb f1 55 29 bc 21 4f bb bb ad 77 1a bc
       -0.003891171 -0.010335431 -0.00571622 -0.009427947
000020 9f f8 fa ba 69 72 c9 bc f3 f8 10 bb 2b 8d 14 bc
       -0.0019147581 -0.024590688 -0.0022121042 -0.00906686
000030 34 40 32 bd f4 cc 00 3b 5a c5 17 bc 02 be 57 bb
       -0.04351826 0.0019653412 -0.009263361 -0.003291965
000040 60 81 9c bc 0e 26 05 3b 1d 43 d6 bc 9f 9d 10 bd
       -0.01910466 0.0020316872 -0.026155049 -0.03530657
000050 63 e7 9d bc a8 80 9b bc 70 bf 9b bc 14 88 5b bd
       -0.019275373 -0.018982247 -0.019012183 -0.05359657
000060 e7 37 23 bd 86 33 04 bd 4e ab 23 bd 0f df 28 bd
       -0.039848235 -0.0322757 -0.03995829 -0.04122835
000070 a3 65 59 bd e2 ca 2f bd f0 b1 1a bd c7 6a e7 bc
       -0.053075444 -0.042918094 -0.03776735 -0.028249158
000080 03 f1 60 bd fe 7f 2f bd 64 a2 b8 bc 0c 56 7d bd
       -0.054917347 -0.042846672 -0.022538371 -0.06184964
000090 b9 a8 c1 bd 4c 36 6f bc ef 7d 59 bd 59 9d 91 bc
       -0.094560094 -0.014600348 -0.053098615 -0.017775225
0000a0 7f 9c a0 bd 34 a4 59 bd 80 8d 87 bd 18 11 69 bd
       -0.07842349 -0.053135112 -0.06618786 -0.056901067
0000b0 4a 46 b4 bd 18 49 bd bc 09 26 91 bd 56 8a b5 bc
       -0.08802469 -0.023106143 -0.07087333 -0.02216069
0000c0 56 60 26 bd 21 63 5d bd 9a 99 1d bd 42 23 29 3b
       -0.040619217 -0.054049615 -0.038476564 0.0025808369
0000d0 84 d4 37 bd 17 ea a6 bc 47 f0 8e bc eb b2 56 bd
       -0.044880405 -0.020375295 -0.017448558 -0.052416723
0000e0 c2 94 11 bd de d7 d5 bc cf 84 37 bd 3a 35 4a bc
       -0.035542257 -0.02610391 -0.04480439 -0.012341792
0000f0 53 5c 64 bd 03 85 19 bd 72 2d b6 bc fc 64 30 bc
       -0.05575211 -0.037480365 -0.022238467 -0.010766264
000100 eb 55 4b bd 03 45 6a bd b2 ca b6 bb ac 5e 00 bd
       -0.049642485 -0.05719472 -0.0055783624 -0.031340286
000110 6c 12 4a bd 3f 99 e7 bc 83 5a af bc 7a f5 51 bd
       -0.049333975 -0.028271316 -0.021405464 -0.051259495
000120 88 ba ee bc 34 55 ab bc 7c 19 ca bc 62 72 cd bc
       -0.02914168 -0.020914651 -0.024670355 -0.025078956
000130 99 0a 3e bd c0 90 06 bc 83 a4 9b bb 1c c6 d6 bc
       -0.046396825 -0.008213222 -0.004749836 -0.026217513
000140 46 a8 76 3c d5 c1 46 bc f7 5d 2c bc 0c 6d 6f bd
       0.015054768 -0.012131174 -0.01052045 -0.058453605
000150 9c 9f 30 bc 5b 1e b2 bc 94 33 c1 bc 68 a6 f6 bb
       -0.010780241 -0.02174299 -0.023584165 -0.0075271614
000160 a1 89 8d 3b 5e cf e9 bc 1d fc b6 bc c1 b9 0e bd
       0.004319385 -0.028541263 -0.022337014 -0.034845117
000170 3e 81 47 bd b3 1a 4d bc 3e ef a7 bc 71 fc 3b bd
       -0.04870724 -0.012518573 -0.020499822 -0.045895044
000180 90 f9 81 3c 5f 53 b2 bb 4e 46 27 bd 41 16 64 bc
       0.015866071 -0.0054420675 -0.040838532 -0.013921321
000190 fb 68 b2 bb 04 87 d1 bc 05 1d 22 bd dc 36 27 bd
       -0.0054446436 -0.025577076 -0.039578456 -0.040823802
0001a0 83 eb 02 bc a3 09 7d bc 5e c0 1d bc ae 09 22 bd
       -0.007990721 -0.015444192 -0.009628383 -0.039560013
0001b0 77 a6 db bc 19 85 7a bb 0b 11 19 bd f2 70 81 bb
       -0.026812775 -0.0038226305 -0.03736977 -0.0039502317
0001c0 f6 8e 3e bd 5f e2 2e bd d7 bd 7d bd 9f 58 0f bd
       -0.046523057 -0.042696353 -0.061948624 -0.034996625
0001d0 c0 45 a1 bc ee 6a ed bc ae 44 b1 bc 7c 2e 9c bc
       -0.01968658 -0.028981652 -0.021639194 -0.019065134
0001e0 e9 e4 85 bd cc 12 29 00 df c2 63 00 7c e8 09 01
       -0.06537802 3.771998e-39 9.16162e-39 2.5329725e-38
0001f0 ef a5 09 80 18 e6 92 3c 8e d7 f6 80 57 98 81 00
       -8.86045e-40 0.017931983 -2.2668859e-38 1.1901428e-38
000200 0a 59 eb 00 fe 9d 32 01 e4 ea 39 bc 40 05 03 00
       2.1613283e-38 3.280679e-38 -0.011347506 2.7739e-40
000210 1a 5e 17 81 29 7c 33 00 f4 5f 0b 80 3c e2 15 3d
       -2.7801834e-38 4.72815e-39 -1.044612e-39 0.036592707
000220 a4 3e dc 00 8e f4 e5 00 08 58 35 00 84 08 19 00
       2.022628e-38 2.1118058e-38 4.898861e-39 2.298942e-39
000230 8c 97 c2 bb 28 b5 14 81 fc 82 90 80 23 d8 32 01
       -0.005938476 -2.731328e-38 -1.32713e-38 3.2848507e-38
000240 2c fb d9 80 db 13 cc 3c fd 8d 47 80 34 29 17 81
       -2.0018406e-38 0.024911812 -6.571256e-39 -2.7763882e-38
000250 ce 54 1f 80 7e 15 03 81 a5 48 eb 3c 6d 7a 3a 80
       -2.877323e-39 -2.407632e-38 0.028721163 -5.370377e-39
000260 ee c4 19 81 73 2d 11 80 cd c5 05 01 58 1e 07 3c
       -2.8242952e-38 -1.577508e-39 2.4570157e-38 0.008246981
000270 7e 3d 39 01 1e 17 2d 81 1e a2 11 00 47 ca 76 00
       3.4023252e-38 -3.1791667e-38 1.61936e-39 1.0909152e-38
000280 72 94 31 3d 65 37 78 80 c5 fa d6 80 f4 53 4b 80
       0.04335446 -1.1040131e-38 -1.9742755e-38 -6.917779e-39
000290 e9 d0 1d 80 d5 d3 c2 bc b7 b3 24 80 1a 14 31 00
       -2.738172e-39 -0.02378265 -3.370547e-39 4.50715e-39
0002a0 42 95 04 81 1c 18 12 81 af 62 0c 3c 45 01 5a 80
       -2.4351658e-38 -2.6833263e-38 0.00856845 -8.26565e-39
0002b0 ee 23 16 00 04 01 5d 80 77 ae 57 80 c1 69 9c 3d
       2.03327e-39 -8.541065e-39 -8.052274e-39 0.076373585
0002c0 7e e2 16 01 e0 f2 05 81 7a c7 0b 81 fe 26 0d 01
       2.771315e-38 -2.4602496e-38 -2.5673385e-38 2.5925585e-38
0002d0 d8 d7 24 3e ce ba 2b 3e e1 23 43 3d 6f 52 77 3c
       0.16097963 0.16770479 0.04764164 0.015095337
0002e0 8d 8b 1c be 40 b3 03 bd 2d 16 65 bd 08 01 a7 bd
       -0.1528761 -0.032153368 -0.05592935 -0.081544936
0002f0 d0 5c 1a be 71 84 28 be a6 ec 56 be 66 d4 2f be
       -0.15074468 -0.16456772 -0.20988712 -0.17170867
000300 2c 88 3d bd 5d 43 a3 bc ac 05 8a bd 07 6b 30 bd
       -0.04627244 -0.019929582 -0.06739363 -0.04307082
000310 3b 6d 50 3d 36 ed 28 3e 1e e9 9b 3d 2e 05 1e 3e
       0.05088542 0.16496739 0.07612823 0.15431663
000320 14 fc 0e 3e 34 13 6d 3e 15 2e 7e 3e 4b e2 51 3e
       0.13963348 0.23151857 0.24822266 0.2049648
000330 46 62 0e be 68 a8 49 bd 22 83 b5 38 d0 3f ea 3d
       -0.13904676 -0.04923287 8.655178e-05 0.114379525
000340 55 c6 04 3e 03 4b a2 bd 0d fa 03 be 09 13 44 bd
       0.12966283 -0.079244636 -0.12888356 -0.047869716
000350 69 47 94 bd 91 fd 07 bd 33 6a 35 bd b8 98 b6 bd
       -0.07240183 -0.033200804 -0.044290733 -0.089158475
000360 dc 23 2c bd 89 15 a2 bd f0 92 2c bd be 4f 8a bc
       -0.042026386 -0.07914264 -0.042132318 -0.016883727
000370 47 79 4d bd 7b 5b 9a bd 33 f9 49 bd 74 13 a3 bd
       -0.050164487 -0.0753698 -0.04930992 -0.07962695
000380 65 19 76 bd 93 00 64 bc 8e 7a be bd 3f b3 97 bd
       -0.06008281 -0.0139161525 -0.09300719 -0.07407235
000390 7e d9 2a bd e7 70 4a bd 56 3f 6a bd 90 19 0a bd
       -0.041711323 -0.04942408 -0.057189308 -0.033715785
0003a0 02 73 d8 bc 25 bd 4f bd 04 60 a4 bd e1 e2 28 bd
       -0.026422027 -0.05071749 -0.08026126 -0.041231994
0003b0 ea 86 1e bd 61 fd 6c bd be e3 7a bd 43 4f 13 bd
       -0.038702883 -0.05785883 -0.061252348 -0.03596426
0003c0 4b 4c 4d bd 7d 8f 46 bd c1 ee fa bc 1d 03 24 bd
       -0.050121587 -0.048476685 -0.030631425 -0.04004203
0003d0 33 01 11 bd 86 5d 73 bb 0b fd be bc 0f 30 17 bd
       -0.035401534 -0.0037134602 -0.02331402 -0.036911067
0003e0 0a 0e a9 bc f0 5b 99 bc e2 c6 2a 3c a1 cd 8c bc
       -0.020636577 -0.018720597 0.010423394 -0.017187895
0003f0 17 23 ab 3a 02 6b 5a bc cb f5 a1 bc 67 8c f0 bb
       0.0013056722 -0.013331177 -0.019770524 -0.007340956

variational.shared_net.0.bias f4 [100]
000000 e4 e2 3c 3c 38 d8 30 3e 19 d8 04 bf c3 9a 01 3d
       0.011528704 0.17269981 -0.5189224 0.031641733
000010 9b ba 00 3e 74 89 a6 bd 64 23 38 3e a9 76 6b 3b
       0.12571184 -0.08131686 0.1798225 0.0035928881
000020 f4 d2 c1 3e 31 1e 89 3e 61 1d f3 3c aa 34 da bd
       0.37856257 0.26780847 0.029677095 -0.10654576
000030 07 71 83 3d 4f f7 06 bf 31 b1 d4 3c 80 d3 52 be
       0.06418043 -0.5272111 0.025963398 -0.20588493
000040 e5 93 57 3e a7 8e bb 3e a5 d5 69 3d 65 15 29 3d
       0.21052511 0.36632273 0.057088513 0.04128017
000050 94 17 b4 3e 7b 49 1c bf cc 3c 28 3d 7b 17 75 3c
       0.3517424 -0.6104962 0.041073605 0.014959211
000060 08 e8 04 3e a2 18 09 3e 21 b9 f3 bd 52 bd 8f 3e
       0.12979138 0.13388303 -0.11900545 0.28074127
000070 82 07 5e bb 27 34 f8 be 1a 11 81 3e 8f 94 40 bd
       -0.0033878987 -0.4847729 0.2520836 -0.047016677
000080 6e 97 24 3e f1 37 5a 3e 62 2d 39 3e d6 c8 2a 3d
       0.16073391 0.21310402 0.18083718 0.04169544
000090 5d fd 14 3e dd f6 0f 3d 9d c4 2a 3d 04 d5 4c bd
       0.14549775 0.035147537 0.04169141 -0.050007835
0000a0 d3 c7 36 bd 56 12 2f bd 6f ed 40 3d ac e9 b0 3d
       -0.04462416 -0.042742096 0.047101434 0.086383194
0000b0 8d 1a 93 bc b5 fe 24 3e fa d1 e1 3c a7 a8 91 3d
       -0.017956996 0.16112788 0.027565945 0.07112246
0000c0 44 ab 05 3e 45 92 4c 3e 16 f5 05 3d 6c b4 d1 be
       0.13053614 0.19977672 0.032704435 -0.40957963
0000d0 5e 68 73 be 33 67 31 be ad 80 8d 3d 9c 7c c3 3d
       -0.23770282 -0.17324524 0.069093086 0.09545252
0000e0 38 d5 83 3e 69 81 14 3e cc 3a 3e 3e d0 ab 6c 3e
       0.2574861 0.14502491 0.18577117 0.23112416
0000f0 cb 52 84 3d 8e b8 00 3f 53 37 84 be c8 5b e2 3e
       0.06461104 0.5028161 -0.2582346 0.4421065
000100 c0 b0 0d bf a9 ec ec 3c 0f dd 46 3e c6 7b 85 3e
       -0.55347824 0.028921442 0.19420265 0.26070994
000110 72 aa ba 3d b2 04 27 3c 52 26 3b 3c 68 e3 d4 3d
       0.09114541 0.010193991 0.0114227105 0.10394937
000120 e9 f6 af bd ae 33 b6 bc 39 15 ac 3d af 4f 86 be
       -0.08592016 -0.02224144 0.084024854 -0.2623267
000130 3f ee 92 be d8 70 9b 3d 6b 2b 35 3f 1a 05 36 3e
       -0.28697392 0.075898826 0.70769376 0.17775384
000140 5b 2e e0 bc 14 ef 6c 3e b2 3f c7 3d 2a 17 08 3e
       -0.027365854 0.23138076 0.09728946 0.13290086
000150 e4 d5 e2 3d 76 78 3a 3e da 11 80 3d a7 47 67 be
       0.11075953 0.18210015 0.06253405 -0.22585927
000160 d8 c9 0f 3e 3b dc 6e bc ed 29 54 bd 71 c6 9c bd
       0.14041841 -0.014578874 -0.051797796 -0.07655037
000170 ac 1f 7a 3e 6f ea 45 3e 06 e6 ec 3d d6 75 c2 be
       0.24426144 0.1932771 0.11567311 -0.37980527
000180 0a 50 7c 3e 0b 81 1f bf 83 b5 9e 3c 6d a7 09 bb
       0.24639907 -0.6230628 0.01937366 -0.0021004335

variational.shared_net.2.weight f4 [100, 100]
000000 41 42 22 3c 85 b8 79 3d 96 c9 42 bd 96 c2 cd bc
       0.0099034915 0.060966987 -0.04755553 -0.0251172
000010 bd c3 24 3c a1 71 e6 bc 17 a7 04 3c 28 ee 2b 3b
       0.010056433 -0.028130354 0.008096478 0.0026234481
000020 db f9 19 3e 75 ed 8a bd 3f a4 0a bd df 9d 12 be
       0.15036719 -0.067835726 -0.033848044 -0.14318036
000030 97 3c d4 bc 99 23 88 bd ec 44 37 3d 58 44 d1 bd
       -0.025907798 -0.06647415 0.044743463 -0.10218114
000040 6d 24 02 3d 14 78 6f 3d 68 32 b8 bc e0 7a 05 bd
       0.03177302 0.058464125 -0.022484973 -0.032587886
000050 fe f0 05 3e 57 b1 40 be 18 92 85 bc a0 67 87 bd
       0.13080212 -0.1881765 -0.016305014 -0.06611562
000060 7a d6 5e bd 6d ae 28 3d 18 a4 28 be 9e 06 4b bd
       -0.05440376 0.04118197 -0.16468847 -0.049566858
000070 f3 aa b6 bc d6 bd 72 be 70 9b 3f 3d f0 94 03 bd
       -0.022298312 -0.23705229 0.046779096 -0.03212446
000080 b4 45 c4 bc 7c 10 1b bd d7 91 0e bc 17 bf 50 bd
       -0.023959018 -0.037857518 -0.008701763 -0.050963487
000090 80 b1 2f bd 2a a0 be bc c4 d8 61 3b 0e 16 7c bc
       -0.042893887 -0.023269732 0.0034461478 -0.015386118
0000a0 ab 02 2b bc 89 8f 06 3c 86 8e fc bc ca 30 b2 bd
       -0.010437648 0.008212932 -0.03082968 -0.08700712
0000b0 7f 4e 40 bd 98 58 90 bd b4 03 12 3b 96 b3 6a bd
       -0.04694986 -0.07048148 0.002228004 -0.057300173
0000c0 c4 2e 9d bb 90 fa 0c bd 30 87 53 bd 3d 1d ed bd
       -0.0047968347 -0.034418643 -0.051642597 -0.115778424
0000d0 07 b2 49 bd 2e e6 ad bc 50 80 d8 bd 35 d0 db 3c
       -0.049242046 -0.021227922 -0.10571349 0.02683268
0000e0 f1 e0 e4 3d 49 e7 80 3d e9 50 6b bc 60 86 02 bc
       0.11175717 0.06294114 -0.014362552 -0.007966608
0000f0 cd d2 1a bd 81 6d b5 3d da f0 d2 bd c6 dc 91 3c
       -0.03779869 0.08858777 -0.10299845 0.017805468
000100 9c de 0d be b2 e6 71 bd 50 df 9e bc 42 2c 98 3c
       -0.1385445 -0.0590579 -0.019393593 0.018575791
000110 1d 97 58 3d 9d ec 03 bd c9 80 5b 3b 6e 80 7c bd
       0.052878488 -0.032208074 0.003349351 -0.061645918
000120 c5 30 9a 3b ff 3f b2 b7 7d 38 00 bd 5d b8 37 be
       0.004705521 -2.1249054e-05 -0.03130387 -0.17941423
000130 98 dc c3 bd a3 5f 30 bd 1e 62 2a 3e d9 5b d1 3a
       -0.09563559 -0.043059956 0.16638991 0.0015972807
000140 71 61 81 bd 72 4d 60 bd 64 2d 36 3c 66 19 78 3b
       -0.063174136 -0.054761358 0.01111922 0.0037856936
000150 c3 aa fa 3b 5f 7c a6 bc cc 54 7d bc c4 34 92 bd
       0.007649751 -0.020322977 -0.015462112 -0.071389705
000160 b4 ce e5 bc 0d 56 85 3c a7 2b c4 bd fb 66 b9 bd
       -0.028052665 0.016276384 -0.095786385 -0.09052845
000170 1c 88 ae 3d bb 8d 04 3d d4 28 a1 bc a5 d5 dc bc
       0.085220546 0.032361727 -0.019672789 -0.026957342
000180 ea f6 ec 3c e2 c3 01 bd 00 ff cb bd b5 40 45 bd
       0.028926332 -0.03168095 -0.09960747 -0.048157413
000190 54 50 20 bd 5b a6 01 bd 4e 17 84 bd 42 26 24 be
       -0.039139107 -0.03165279 -0.064497575 -0.16030219
0001a0 e2 33 97 3c 5c 0f f7 3d 47 5a f3 bd 92 1c 1f be
       0.018457357 0.120634764 -0.118824534 -0.15538242
0001b0 d8 e1 a0 bc 30 dc 4d 3d c8 8a 93 3d 6c df 05 be
       -0.01963894 0.050258815 0.07204205 -0.1307351
0001c0 78 e6 74 3d c3 34 1c 3d 1c a4 26 be 34 96 47 bd
       0.059790105 0.038136255 -0.1627354 -0.04872723
0001d0 ba 44 53 3d b5 7a 44 3e a8 a9 44 3d b0 9a 3f 3d
       0.051579215 0.19187434 0.04801336 0.04677838
0001e0 17 f7 f6 bb dd 4d 51 be 8d a4 53 3d 1c 6d 2f bd
       -0.0075367796 -0.20439859 0.0516706 -0.042828664
0001f0 86 e0 25 bd 4d a6 4c be e7 3d 6c bc bc 7c 78 3d
       -0.040497325 -0.19985314 -0.014419056 0.06066583
000200 3b 34 40 bd 4d a4 06 be 76 68 ad 3d a5 a4 a8 bd
       -0.04692481 -0.13148613 0.0846719 -0.082345285
000210 1a 7e e5 bd c3 e9 96 3d 8a e5 bf 3d 99 b5 6b 3d
       -0.112056926 0.07368805 0.09369953 0.057546232
000220 45 5a 05 3e bb ef 88 be 71 e5 06 be 03 66 71 3d
       0.13022716 -0.267454 -0.13173462 0.058935177
000230 cb da 0c bc 8f 3b 86 3d 0e 44 9c 3b c6 a2 84 3c
       -0.008597086 0.06554329 0.004768855 0.016190898
000240 ee 89 49 bd 6b 9c 37 3e 55 86 d8 bc f7 91 c3 3d
       -0.049203806 0.17930762 -0.026431242 0.09549325
000250 88 f4 20 be 1e 36 df bc 01 58 05 bd 2b 93 d3 bd
       -0.15718281 -0.027247485 -0.03255463 -0.103308044
000260 73 fa bd bd 64 f2 a7 bd 89 0b 88 3d c5 41 9f 3d
       -0.09276285 -0.08200529 0.06642825 0.077762164
000270 70 51 57 bd e4 7d 02 3e 88 4e 89 3d 20 c6 c5 3d
       -0.0525679 0.12743336 0.06704432 0.0965693
000280 f3 69 e0 bd 3a 8d 78 3d 21 e9 b9 bc 07 0f d6 bd
       -0.10957708 0.06068156 -0.022694172 -0.10452085
000290 77 22 91 3b 35 88 34 3c 38 47 80 bd d6 a1 e3 3d
       0.0044291574 0.011018802 -0.06263584 0.11114852
0002a0 9f 57 16 3c 6b 08 af 3c e0 f8 19 be ad b7 0a 3d
       0.009176164 0.021366319 -0.15036345 0.033866573
0002b0 a8 95 ba bb a3 e3 73 bd b0 3f 77 bd 2b 76 ac bd
       -0.00569411 -0.059543263 -0.06036347 -0.08420976
0002c0 6d 4b 6c bd 25 68 82 bd 35 e0 78 3e ab 89 53 bb
       -0.05768912 -0.0636752 0.24304278 -0.0032278101
0002d0 b8 b9 18 bd e9 50 ce bc c0 16 19 bc b4 17 22 bb
       -0.03728649 -0.025185065 -0.009343803 -0.0024733366
0002e0 ff 90 47 bd 56 c9 ab 3c 93 0b 65 bc c7 86 4f 3e
       -0.048722263 0.020970028 -0.01397981 0.20266257
0002f0 11 26 a6 3b 79 3b 56 be 1f 15 a1 bd 03 4b a2 3d
       0.005070456 -0.20921125 -0.07865357 0.079244636
000300 38 4d 97 3d 6d c7 29 3d 4c 02 fa 3d 98 d4 14 3e
       0.07387775 0.041449953 0.12207469 0.14534223
000310 ab fc c2 bb b1 80 3e be 36 d9 0b 3c 65 02 ca ba
       -0.0059505305 -0.1860378 0.008535674 -0.001541209
000320 2b 13 07 be b0 33 0a 3d e5 f5 12 3d 39 98 02 3d
       -0.13190906 0.0337407 0.035879035 0.031883452
000330 ba 5f 51 bd ad c2 38 bb 91 94 58 3d a0 93 0f 3d
       -0.051116683 -0.0028192208 0.05287606 0.035052896
000340 a9 81 65 bd 8b 36 34 3d 9d 4a 8f 3d 5e 59 be 3b
       -0.056031857 0.04399733 0.06996653 0.0058089932
000350 b0 b3 a1 3d 65 4a 80 3d 9b 1f ae bc 0c 4a b4 3d
       0.07895601 0.0626419 -0.021255305 0.08803186
000360 a3 f9 54 3d 40 ac 99 3c 5f 1c a7 bd a1 46 67 ba
       0.051995885 0.018758893 -0.08159708 -0.0008822475
000370 e9 57 35 bd 69 46 63 bd d7 8c c3 3d a1 42 02 bd
       -0.04427329 -0.05548707 0.095483474 -0.031801824
000380 51 ef 8d 3c c1 b9 74 3c b3 f4 87 3d 4e 68 50 bd
       0.017326029 0.014936865 0.066384695 -0.050880723
000390 d2 f5 94 3d 07 c5 1c 3c f8 55 75 3d 80 d6 f2 bb
       0.07273449 0.009568459 0.05989644 -0.0074108243
0003a0 e4 92 16 bd b3 e2 41 3d 28 95 bd bc e7 3e eb bc
       -0.03676118 0.047335338 -0.023142412 -0.028716518
0003b0 ae 14 a2 bd be a1 36 3c fe 32 2b 3d 51 ad 85 3d
       -0.079141006 0.011146961 0.041796677 0.06527198
0003c0 b9 bd 32 3d de 5d 82 bc f4 3a b2 3d 75 e0 91 3c
       0.043637965 -0.0159139 0.08702651 0.017807225
0003d0 2d 0f a0 bc 17 ce 5f 3d e9 03 38 3d 2d ce 5d bc
       -0.019538486 0.054639902 0.044925604 -0.013537926
0003e0 4b e8 8a bc 0a ca c3 3c d8 f8 92 bc 57 ad 67 3d
       -0.016956469 0.02390005 -0.017940924 0.056561794
0003f0 a2 93 11 3c b0 e7 17 3e bd 85 05 3c 14 99 99 bd
       0.008885296 0.14834476 0.0081495615 -0.074999005

variational.shared_net.2.bias f4 [100]
000000 e8 10 3c 3f 09 f2 b1 3e d0 6b 81 bc 6c 13 cd 3d
       0.73463297 0.3475497 -0.01579848 0.1001347
000010 47 e3 06 3e b2 19 9f 3e b1 d2 e3 bb 1a 99 8e 3c
       0.13172637 0.3107429 -0.0069526066 0.017406989
000020 87 25 63 3d b6 08 7b bc ba 95 ce 3d ef 24 fb 3d
       0.05545571 -0.015321901 0.10087152 0.12262904
000030 40 90 99 bc a5 32 b7 bd 0f 09 44 be ef cd ae 3e
       -0.018745542 -0.089452066 -0.1914408 0.3414149
000040 5e 48 e9 3c 45 a5 27 3e 69 b2 05 3d 24 1f 63 3d
       0.02847689 0.16371639 0.03264085 0.05544962
000050 9a 5c 09 bd 14 9b f4 bc d0 f1 ea bd d8 16 0d 3f
       -0.033535577 -0.029859103 -0.11471903 0.5511298
000060 44 09 ad 3d fc ae 4b bd d9 84 27 3e 05 08 82 3d
       0.08449033 -0.049727425 0.16359271 0.06349186
000070 c9 74 d1 bc 1e fa 5d bd 3e cc 09 3e a3 96 80 3e
       -0.025568383 -0.05419361 0.13456818 0.25114927
000080 51 cc a1 3c 0e 00 3c bd ca 83 54 3e c3 e1 d9 3d
       0.019750746 -0.04589849 0.20753399 0.10638764
000090 b0 86 9f 3e a0 72 ad 3d e8 cc 43 3b 93 b1 5e 3d
       0.31157446 0.084691286 0.0029876772 0.054368567
0000a0 f6 f1 41 bd bc 10 0a be f6 3b f1 3c 10 fd 91 3d
       -0.047349893 -0.13482946 0.029447537 0.07128346
0000b0 d6 63 ba bd b2 0f 44 be 6f 1f c4 3e b5 a7 08 3f
       -0.091010734 -0.19146612 0.38305232 0.533809
0000c0 9d 7f f2 bd cc ce 07 be a7 e6 30 3e 05 50 7e be
       -0.118407466 -0.1326248 0.17275487 -0.24835213
0000d0 a0 f6 f7 bc 6f 25 58 bd ea 8e 86 3c 0d 79 3b 3e
       -0.030268967 -0.052770074 0.016425569 0.18307896
0000e0 63 31 aa 3d ae c2 aa bd 92 36 4f 3c 32 0f 04 bd
       0.08310201 -0.083379135 0.012647288 -0.032241054
0000f0 13 50 21 bd a1 49 fa bc 11 8f b5 bd 25 a3 a2 bd
       -0.039383005 -0.030552687 -0.088651784 -0.079412736
000100 8c 19 00 3e e1 eb 16 3d be ec 94 bc a6 23 0c 3d
       0.12509745 0.036846045 -0.018179294 0.034213684
000110 02 b3 2e bc b3 89 50 3e 91 c3 ba bd 22 7d b3 bd
       -0.010662796 0.20365028 -0.091193326 -0.087641016
000120 f0 f7 c4 3d 1c 6c 8c 3d 20 22 e0 3a ee ab b0 3c
       0.09617603 0.06856558 0.0017100014 0.021566357
000130 93 52 9f 3c 9a 4a 10 3e d7 70 23 be 2e 28 19 3d
       0.019448554 0.14090958 -0.15961014 0.037391834
000140 5e c5 31 3e 98 f1 d1 bb fd 80 a5 bd e1 a5 85 3d
       0.17360446 -0.006406974 -0.08081243 0.065257795
000150 c0 35 ec 3c 9f 4b bd 3d 73 b5 01 3e 7d d0 3d bd
       0.028834224 0.09242939 0.12666874 -0.046341408
000160 36 c9 c2 3e ff 80 90 bd bf 7c 83 bd 23 59 0b bd
       0.38044137 -0.07055854 -0.06420278 -0.034020554
000170 f7 bb 41 3d a0 f0 8d 3d e7 ce 82 3c e7 b6 ba bd
       0.047298398 0.06930661 0.0159678 -0.09116917
000180 41 d4 b1 bc f6 7d ca 3d 96 0f 6b bc a2 14 54 3d
       -0.021707656 0.098873064 -0.014346978 0.05177749

variational.z_mean_net.0.weight f4 [8, 100]
000000 99 24 9f bc 23 8d a8 3b 38 0a 1a 3d 9c 37 d4 bc
       -0.01942663 0.005143778 0.0376074 -0.025905423
000010 c4 26 11 bd 5d e2 33 3d 22 36 a3 3c 7a 32 a8 3c
       -0.03543736 0.04391705 0.019923273 0.020531882
000020 b7 cc 89 3c bd c4 05 bd f9 e6 81 bd b7 c7 75 bd
       0.016821248 -0.032658327 -0.06342883 -0.060004916
000030 c0 9a cd 39 50 c3 6f 3c 44 8c 18 3d 6c 1a d3 bb
       0.00039215945 0.0146339685 0.037243143 -0.0064423587
000040 67 a8 8a 3d 04 b2 7f bd 9d 13 b4 3d d5 72 96 3d
       0.067704014 -0.06242563 0.087928034 0.07346121
000050 1e 9b 3b 3d 18 54 f4 39 f8 81 30 3d fd 18 ae 3c
       0.04580223 0.0004660196 0.043092698 0.02125215
000060 10 fd 69 bd 46 bc cd 3d 3b 3b f1 3c f4 c2 ba bb
       -0.057126105 0.10045676 0.029447189 -0.0056995098
000070 1f d1 ab bc 32 d8 67 3d ad 5e b8 bc fc b9 b6 3b
       -0.02097374 0.056602664 -0.022506082 0.0055763703
000080 3a a6 9f 3c a8 18 5b bd e3 1b 32 3d 89 e7 89 bd
       0.019488443 -0.05349031 0.043483626 -0.06733615
000090 67 55 ca 3c d0 db 1c 3d ed 92 f5 bc 6a 0a fd 3c
       0.024698926 0.038295567 -0.029977286 0.030888755
0000a0 d3 a5 fd ba 49 78 32 bd 45 f4 56 3b d0 28 f2 3c
       -0.0019351788 -0.043571744 0.0032799405 0.029560477
0000b0 d3 80 e7 3b df 0d 43 ba 7b 40 51 bd d8 80 1c 3c
       0.0070649176 -0.00074407266 -0.051086884 0.009552203
0000c0 57 3f 96 bd 21 61 19 bb 0a b7 a4 3c 83 2e d0 3c
       -0.073363 -0.002340384 0.020106811 0.025412804
0000d0 62 7c 4e bd f2 b4 8d bc c4 1d 7a 3d 03 bc 08 bc
       -0.05041159 -0.017298196 0.061063543 -0.008345607
0000e0 37 ec eb bc 14 b6 49 3c f1 da 9b 3d f6 6f d7 3c
       -0.02879916 0.012311477 0.07610119 0.026298504
0000f0 8c 1a f9 bc 80 b7 26 bd 5a 6f 28 bd f7 60 5b bc
       -0.030408166 -0.040702343 -0.041121818 -0.013389817
000100 dd 85 43 3d b0 74 b2 3c c2 41 dc bc 02 47 4a 3c
       0.047735084 0.021784157 -0.026886825 0.012346031
000110 f2 1d 02 bc b2 ff f7 3b 8c 69 fa bc a3 94 ce bc
       -0.00794171 0.007568323 -0.030567907 -0.02521736
000120 7a a7 8f ba 56 94 f5 3c a4 d8 de 3c 47 17 8c 3c
       -0.0010959946 0.029977959 0.027202912 0.017100943
000130 68 a6 18 3d 0b be 58 bd 04 ae 9b bd c6 13 1a bd
       0.037268072 -0.052915614 -0.0760155 -0.037616514
000140 47 ea 73 bc 41 68 b5 bc c6 85 9e 3c 3b 21 3c bc
       -0.014887399 -0.022144439 0.019350898 -0.011482532
000150 75 15 18 bd 56 b6 d8 3c 7a 5b c7 3b 4b 4a b5 3c
       -0.037129838 0.026454132 0.006083903 0.022130152
000160 a7 46 fa bc 14 65 f1 3c 9c cd df bc 49 8f 91 bc
       -0.030551268 0.029467143 -0.027319722 -0.017768519
000170 e7 91 1f 3d b5 eb f3 ba bd b6 24 bc c5 7c a8 3c
       0.038957503 -0.0018609675 -0.010053334 0.020567307
000180 3d da 97 3d cc 57 7e bd a3 08 b9 3c 82 0e 4d 3c
       0.074146725 -0.06209545 0.022587126 0.012515666
000190 18 b6 9b bd 80 fb 61 bd 4e ce 82 bd 59 4b 56 bd
       -0.07603091 -0.05517149 -0.06387006 -0.05231795
0001a0 8b 5d e4 bc 43 58 dc 3c e2 95 8a 3a 7b 7a 51 3d
       -0.027876636 0.026897555 0.0010573233 0.051142197
0001b0 b2 a6 57 3c f6 cc dd 3c 7d e5 ba bd fd d3 b9 3d
       0.013162302 0.027075272 -0.09125803 0.09073637
0001c0 52 d5 53 bd cb ac a8 3d 18 ad c0 3d 44 e2 ad bb
       -0.05171711 0.08236083 0.09408015 -0.005306514
0001d0 30 fc 14 3e 15 b0 17 3d 91 14 78 3d 61 02 2b bd
       0.14549327 0.03703316 0.06056649 -0.041750316
0001e0 4f 48 b6 bd ef 10 7a 3c bb 6a f7 bc 3a 00 9a bd
       -0.089005105 0.015262826 -0.03020226 -0.075195745
0001f0 f6 65 75 bd ad 08 55 3e 15 37 9e bc 04 74 a4 3d
       -0.05991169 0.20804091 -0.019313375 0.08029941
000200 80 18 36 bd 55 e0 ad bd 1e 46 65 3c fe 3d 9f bc
       -0.04445696 -0.084900536 0.013993768 -0.01943874
000210 6f 83 9a bd 30 68 0d bd a2 25 5c bd 14 a6 99 3d
       -0.075446 -0.03452319 -0.053746827 0.0750238
000220 99 3b 9d 3d f1 db 84 bd 6c 36 07 3d 4e 6c 06 3d
       0.07677383 -0.06487263 0.033010885 0.03281813
000230 8c ed 43 3d 2f 4c 77 3d 8d cf 4e bd 57 19 9e 3d
       0.047833964 0.06037539 -0.050490905 0.07719677
000240 dd ad 95 3d 40 34 cb 3a ca d1 84 bd 69 1f 6a bd
       0.073085524 0.0015503243 -0.064853266 -0.05715886
000250 6c 68 a6 bc 05 f1 96 3d db d8 33 bc ca 1b ca 3d
       -0.020313464 0.073701896 -0.010976995 0.098685816
000260 50 ad 1a 3c a1 12 34 3d 7a cb 8e bd 62 5a c8 3d
       0.009440735 0.04396308 -0.06972404 0.09782864
000270 2c 10 22 3d 8d c5 d7 bc 62 58 d7 3d 3a a9 a1 3d
       0.039566204 -0.026339317 0.105149046 0.078936055
000280 9f f5 1b bd e3 37 87 3d 80 a0 41 3e b5 31 7b bd
       -0.03807604 0.066024564 0.18908882 -0.0613267
000290 b5 b6 15 bd 0a cd 60 bd 0c ad 23 3d ca 0e da 3d
       -0.036551196 -0.05488304 0.039959952 0.10647352
0002a0 0c 6c ae 3d 27 62 31 bc 9c 79 f7 bd 54 6f 84 3d
       0.08516702 -0.010826624 -0.12083742 0.06466547
0002b0 9a 4d c4 bc a4 b7 bb 3d ff 61 5c 3d 8c 08 5d bd
       -0.023962785 0.09165886 0.053804394 -0.05396323
0002c0 fa 3f 95 3c 59 7c 5e 3d e1 5a ab bd 2e 09 00 3d
       0.018218983 0.054317806 -0.08366943 0.031258754
0002d0 f8 2c 9e 3d 0c 20 2b bd 2f 4b a6 bd 93 4e 2a 3c
       0.07723421 -0.04177861 -0.08119809 0.01039471
0002e0 ba 0a 8e 3c 8b ea c9 3d 96 d4 ad 3c 6d ef 97 bb
       0.0173391 0.09859189 0.021219533 -0.004636696
0002f0 ce fd 9a bd ea b4 dd bd e3 9b cd 3c 31 fd 1f bd
       -0.07567941 -0.10825522 0.025098747 -0.03905982
000300 04 5a 56 3d 2b 3c 8c bd 8a 05 50 bb 2f e5 63 3d
       0.05233194 -0.06847414 -0.0031741583 0.05563849
000310 1e cd 8d 3d 54 68 ce 3d 13 f3 91 3d 02 ec 74 bd
       0.069238886 0.10078493 0.07126441 -0.059795387
000320 c6 37 d5 3c 01 da a4 bd 56 11 8a bd 60 9a af 3d
       0.026027571 -0.080493934 -0.06741588 0.085743666
000330 5c 4d eb bc b8 50 82 3d a7 32 f9 3c 0b 4c 8a 3d
       -0.028723411 0.06363052 0.03041966 0.06752785
000340 dd f3 87 bc d9 6f e6 3d a2 2a c3 bd a0 6a b7 bd
       -0.016595775 0.11251802 -0.09529616 -0.08955884
000350 86 3e b2 bd 7b 0b 8b 3e 53 9b 07 3e b1 45 04 3e
       -0.08703332 0.27157196 0.13242845 0.1291721
000360 1f 4c 1f 3e 33 00 4c bd 2e 24 d5 3d 9a b2 e9 3d
       0.15556382 -0.049804877 0.10407291 0.11411019
000370 34 81 86 3d 71 24 e1 bc c7 e9 70 bd 76 26 eb bd
       0.06567612 -0.027483197 -0.058816697 -0.11481945
000380 a3 df 9d 3d 6d 14 c3 3e 4b d4 30 be a5 42 9f bd
       0.07708671 0.3810152 -0.17268483 -0.07776383
000390 36 5b 64 3d 2d 0f e2 3c a7 a4 f7 bd 48 4e 08 bd
       0.055751048 0.027595127 -0.12091952 -0.03327778
0003a0 cc 11 8b bd f5 cb 00 3d f7 a3 26 bd 52 09 c2 3d
       -0.06790504 0.03144451 -0.040683713 0.09474434
0003b0 87 9a 23 3e 59 34 df bd 8b 9f 1d 3d 44 93 82 3d
       0.15976916 -0.108986564 0.03848223 0.06375745
0003c0 b8 8b ad bd fb 19 d1 3d 02 aa 42 bd 33 48 3c bd
       -0.08473915 0.102100335 -0.047525413 -0.045967292
0003d0 be 12 d8 3c ee 4b 34 bd 8f e9 05 3c 1d 2f b1 3d
       0.026376124 -0.044017725 0.0081733605 0.08651564
0003e0 8c 4d 10 3e 8a 87 33 3d 4a 66 fc 3c 97 ac 6c bc
       0.14092082 0.043830432 0.030810494 -0.0144454455
0003f0 4b 23 7c bb 94 4e 25 3c c6 bb e9 3c 6e 86 d7 bd
       -0.0038473185 0.010089535 0.02853192 -0.10523687

variational.z_mean_net.0.bias f4 [8]
000000 c9 fb e1 3c cc e1 6c bc b5 26 f5 bc 8e 25 17 bd
       0.02758588 -0.014458131 -0.029925684 -0.03690105
000010 18 78 6a 3c e0 17 be bd c6 c5 d6 3d ce 5b ef bd
       0.014310859 -0.092818975 0.10486941 -0.11687432

variational.z_std_net.0.weight f4 [8, 100]
000000 a0 87 5d 3d 2b 5e 01 3c a9 fe 9a bb 17 23 93 3c
       0.05408442 0.007895987 -0.004730065 0.017961068
000010 b9 ed 0c bd 34 f4 55 3d 0f 2e fb bc d6 ed 00 3d
       -0.034406397 0.052234843 -0.03066161 0.031476818
000020 65 30 68 3c fb ce 45 bc 6e 83 a1 3d 37 22 bc bc
       0.014171694 -0.012073274 0.07886396 -0.022965534
000030 c6 ff a5 3d 1d dc 3c bc 82 17 c3 bb 14 1b 25 3d
       0.081054255 -0.0115270885 -0.00595373 0.040309027
000040 a9 05 b8 3d 53 01 85 3d 02 58 de 3c 3e 7d 77 bd
       0.089854546 0.06494393 0.027141575 -0.060422175
000050 c8 e3 b2 bc 84 99 18 bc 20 fd 7d 3c a2 12 50 3d
       -0.02183713 -0.009313945 0.015502244 0.05079902
000060 a1 79 08 bd db 3b 9d 3d e5 79 56 3d 5e d9 37 3c
       -0.03331912 0.07677432 0.05236234 0.011221258
000070 84 29 91 bd 66 5a 88 3d 52 d4 06 3d 0b be 18 3d
       -0.070879966 0.06657867 0.03291733 0.037290614
000080 5c 97 4b bd bb 7f 55 3d 55 52 cf 3b 37 49 8d bd
       -0.049704894 0.052123766 0.0063269534 -0.0689873
000090 2d 8c ec 3c 16 8c 8c bc 5b 6f 68 bd 38 00 35 3d
       0.028875435 -0.017156642 -0.05674682 0.04418966
0000a0 6e 92 13 bc 7b 55 52 3d 8b 94 67 3c c9 ba 7a 3d
       -0.0090070795 0.05135105 0.0141345365 0.06121329
0000b0 17 71 0b 3d 31 13 db ba 92 1c 24 bc d3 c1 9e 3d
       0.034043398 -0.0016714094 -0.010016577 0.07751813
0000c0 54 dd be 3b f6 18 a3 bc d4 5a a3 3d 2e fb ff bc
       0.005824724 -0.019909363 0.079763085 -0.031247701
0000d0 0b e2 6e bd 87 e5 c7 3c ce 1f 28 bd 3a b3 96 bb
       -0.05832104 0.02440144 -0.041045956 -0.004599002
0000e0 00 88 39 3c 38 9b ef 3c ee e8 60 bd 29 2e 77 bc
       0.011323929 0.029248819 -0.05490964 -0.015086689
0000f0 55 9c a8 3b 76 0c d2 3d 3d b8 95 3c 91 a2 11 3d
       0.0051455894 0.10256283 0.018276328 0.035555426
000100 12 26 97 3c b1 b1 2f 3b 07 4c 7b 3d 33 4b bf bc
       0.01845077 0.0026808793 0.061351802 -0.023351287
000110 17 63 68 3b d7 c3 b7 3c e8 99 ac 3c ae 40 de bb
       0.0035459453 0.02243225 0.021069482 -0.0067826128
000120 69 2b 33 3d 21 18 e8 3b da 45 d9 bc e2 2b 32 3d
       0.04374257 0.0070829545 -0.026522566 0.04349888
000130 23 ad 02 bc c5 1d f4 3c da e8 fa 3c 20 8a 87 bc
       -0.007975849 0.029799351 0.03062861 -0.016545355
000140 9c a6 54 3d 7d 4d e7 3c 4f 9c c6 3d ac 30 15 3c
       0.051916704 0.028235191 0.09697782 0.009105843
000150 b0 fd e4 39 7a 4e 7a 3d d2 1e af bc 38 45 30 bd
       0.0004367656 0.061109997 -0.021377001 -0.043034762
000160 4c 3f 83 3c 77 0c 94 bd f0 e7 45 bc 83 6e 9a 3c
       0.016021393 -0.0722894 -0.012079224 0.018851524
000170 5a 38 25 3b 19 7b 60 bd bb f7 1c bc d9 f5 8f bd
       0.002521059 -0.054804895 -0.009580548 -0.070293136
000180 56 91 83 bd c4 a9 51 3d 07 f1 2c bc e6 80 26 bc
       -0.06424205 0.05118729 -0.010555512 -0.010162568
000190 db 38 83 bf bc 91 81 be df bf 32 bc e5 bf 0a 3c
       -1.0251726 -0.253065 -0.010910003 0.008468603
0001a0 a6 00 82 bd 86 14 33 be b3 e2 23 3b da b9 d9 bd
       -0.0634778 -0.17488298 0.002500695 -0.106311515
0001b0 2f 6c 3d be c8 f5 d6 3c 7d 49 b7 bd ce af 97 bd
       -0.184983 0.026240245 -0.08949564 -0.07406579
0001c0 75 ce c6 3c 51 04 21 3e 22 bb f3 3d cf 02 a2 bd
       0.024268368 0.15724303 0.11900927 -0.07910692
0001d0 01 86 47 bd ce 4f 08 be 08 b2 05 be ee 66 38 bd
       -0.04871178 -0.13311693 -0.13056195 -0.045020036
0001e0 c9 19 d0 bd 61 62 68 3c 10 65 3b 3d 50 27 f2 be
       -0.10161168 0.014183612 0.045750678 -0.47295618
0001f0 bc 96 76 bd 25 5a 57 3e dd 1d 87 bd a3 c7 04 bd
       -0.060202345 0.21030481 -0.06597493 -0.03241695
000200 d3 b5 d9 3d ae d6 3d 3d 0b f4 0c be 8f 39 89 be
       0.10630383 0.046347313 -0.1376497 -0.26801726
000210 6e 49 ca 3b a7 d2 41 bd 78 82 b8 3c 94 43 f8 3c
       0.0061733043 -0.047320034 0.02252315 0.030305661
000220 b6 29 36 be b4 6e 75 bd 08 a1 d1 bd d6 46 8f bd
       -0.17789349 -0.059920028 -0.102357924 -0.06995933
000230 d9 11 ed 3d 1e 8a ad bc 8c 44 5e bd 85 91 df bd
       0.1157567 -0.021184023 -0.05426459 -0.109164275
000240 02 a6 00 3e d5 20 2f 3e 06 7b 65 be 1a 69 89 be
       0.12563327 0.17102368 -0.22410211 -0.26838
000250 cd fd 48 3d c8 48 c2 3d da 52 89 bd 9d 68 41 3e
       0.04907017 0.09486538 -0.06705256 0.18887563
000260 90 42 74 3c 15 49 74 3d 9e f6 d3 bd c8 04 bb bd
       0.014908448 0.05964001 -0.10349773 -0.09131771
000270 dd f7 25 3d 9c 3e 18 bc 7a 51 31 bd fd db 06 3d
       0.040519584 -0.009292271 -0.043290593 0.03292464
000280 4b 6c 35 bd a2 08 5c 3d 4d 68 0b 3f 29 98 b7 bb
       -0.04429273 0.05371917 0.54456025 -0.0056028557
000290 57 12 fc bb cf b4 80 be 72 24 a5 3b 12 e0 d1 bb
       -0.007692616 -0.25137946 0.005039745 -0.006404885
0002a0 9f 29 cb 3b fa 25 81 bd 02 12 eb 3d 19 37 53 bd
       0.00620003 -0.063060716 0.11478044 -0.051566217
0002b0 ae ae 0b be a2 46 35 3e 27 4d b0 3d 28 cb 64 bc
       -0.13640854 0.17702726 0.08608466 -0.013964452
0002c0 2f 6a 4f bc 32 83 fd bd f5 6f 05 3e b8 fc 3d be
       -0.0126595935 -0.12378539 0.1303099 -0.18553436
0002d0 23 f7 e9 bd 7e cb 07 bd ca ae 20 3b 66 ae 3d bd
       -0.11424091 -0.03315305 0.0024518245 -0.046308897
0002e0 95 c5 b6 3d a7 26 72 be a9 51 a5 bd df 97 a4 3b
       0.089244045 -0.23647557 -0.08072216 0.0050229873
0002f0 0b 82 b1 be 56 3d db bc 2f 0c 3e bc 26 6c 53 3d
       -0.34669527 -0.026762646 -0.0115995845 0.05161681
000300 20 99 6f 38 bc 5c b9 bd 32 f2 be bd e9 b4 90 3c
       5.712465e-05 -0.09050891 -0.09323539 0.01766439
000310 4e 5a 67 bd 48 dc 06 3d 5b 4f 6f 3b bc db 90 ba
       -0.056482606 0.03292492 0.0036515805 -0.0011051814
000320 a7 20 46 bf ca 44 63 be 54 74 ad bd 7a 44 8d bd
       -0.77393574 -0.2219421 -0.084694535 -0.068978265
000330 0b 11 94 bd c1 08 92 bd 12 22 6a 3d bd 03 0b be
       -0.07229813 -0.07130576 0.0571614 -0.13575645
000340 c9 26 74 bd 6c a9 cb 3d 59 72 4a bb 97 98 e3 bc
       -0.0596073 0.09944424 -0.003089091 -0.027782721
000350 f4 ed c1 3d b7 6d 03 3e 12 e8 22 3e 1e 8b b7 bd
       0.09469214 0.12834822 0.1590884 -0.089620814
000360 2e 91 b5 3c 8a 9d a4 bd fa 2d e7 bd 3f e7 6c bc
       0.022163954 -0.08037861 -0.11288066 -0.01445943
000370 0f 10 51 be 44 22 19 bc 46 79 2f bc 12 75 b6 be
       -0.20416282 -0.0093465485 -0.010710066 -0.35636193
000380 16 cb 6a 3b 69 f8 8a 3e 28 b7 0c bd 91 3f a6 bc
       0.0035826615 0.27142647 -0.03435436 -0.020293983
000390 d7 1a 65 3d 59 94 11 bd 19 5d 22 be 55 8a 1a be
       0.0559338 -0.035541866 -0.15855826 -0.15091832
0003a0 ea 73 86 3c 07 61 0c 3d 6a a6 0f bd 1f 2b 3c bc
       0.016412694 0.03427222 -0.035070814 -0.01148489
0003b0 55 c7 23 be 52 23 df ba 90 7d f7 3c 65 11 79 bd
       -0.15994008 -0.0017024076 0.03021124 -0.060807604
0003c0 3a 78 c5 3d 4a a3 b0 bc 60 45 ab bd d2 a2 ab bd
       0.09642072 -0.021562237 -0.083628416 -0.08380665
0003d0 af 6b 76 3d bd c4 20 3e 96 f7 54 be fd 88 42 be
       0.06016129 0.1570005 -0.20797572 -0.1899757
0003e0 5f da d2 3d bb 6c 5b 3d cf 82 02 be a3 d9 08 3e
       0.10295557 0.05357049 -0.12745212 0.13364272
0003f0 4a ef 26 bd c7 26 4d 3d f0 6f 53 bb 94 4a f3 bd
       -0.040755548 0.05008581 -0.0032262765 -0.11879459

variational.z_std_net.0.bias f4 [8]
000000 f4 5a b4 3d bb f0 e1 be 8f 7a c3 be 13 a8 80 3d
       0.088064104 -0.44128975 -0.38179442 0.062820576
000010 ae 0b af 3d c2 5d 9a be e6 72 be be 81 94 56 be
       0.085471496 -0.30149657 -0.37197036 -0.20955087

generative.shared_net.0.weight f4 [100, 99]
000000 75 17 db ba f3 5a ef bd 1f e9 2d 3d ae 8f 86 3a
       -0.0016715365 -0.11687269 0.04245865 0.0010266209
000010 50 92 ad 3a 5b 84 3e 3e 70 02 c2 bd 2c 55 08 bd
       0.0013242457 0.18605177 -0.09473121 -0.03328435
000020 a9 ac 60 3d c2 bb 3b 80 16 1f 32 01 70 e5 3c 80
       0.05485216 -5.485649e-39 3.271574e-38 -5.592436e-39
000030 85 17 8b 00 5b 62 74 3c 38 70 2f 81 0f 15 09 81
       1.2773571e-38 0.014916028 -3.2222937e-38 -2.5178035e-38
000040 82 b6 48 81 3b a7 13 81 e4 d0 2a 3d a1 e4 89 00
       -3.686514e-38 -2.7119618e-38 0.04170312 1.266348e-38
000050 7e e5 31 01 e9 cb 3d 00 8d 88 34 00 94 a5 3b b9
       3.2674418e-38 5.675114e-39 4.824431e-39 -0.00017895392
000060 da 14 0b 01 5c ad 39 00 2a 3f 5c 81 4c 13 7f 00
       2.5545228e-38 5.296813e-39 -4.0452936e-38 1.167003e-38
000070 2a 16 b9 3c 74 ac 86 80 96 5b 3d 80 27 91 34 81
       0.022593576 -1.2367821e-38 -5.63482e-39 -3.316492e-38
000080 a0 ca 0d 81 98 6b 49 3d dc 6c 2a 81 5f 09 a8 80
       -2.6042986e-38 0.049174875 -3.1302171e-38 -1.5431725e-38
000090 95 53 2c 80 82 3e 24 81 bc 4f b4 3c f7 c2 fe 00
       -4.070745e-39 -3.016689e-38 0.022010677 2.3396156e-38
0000a0 e6 78 e2 00 3c ea f0 80 fc f6 cd 00 1b 94 07 3d
       2.0798192e-38 -2.2124547e-38 1.8914878e-38 0.03310023
0000b0 a6 2b 77 01 1d 42 f3 80 04 f8 2c 81 b6 f6 21 81
       4.539805e-38 -2.2339743e-38 -3.1769353e-38 -2.9748036e-38
0000c0 bf f9 41 3c 9e 9d 32 81 32 76 21 80 8a 89 0c 00
       0.011839329 -3.2806521e-38 -3.072972e-39 1.151366e-39
0000d0 58 c2 2e 81 90 99 e0 3c 02 63 73 00 ce 29 8b 81
       -3.2098187e-38 0.027416974 1.05966e-38 -5.112052e-38
0000e0 80 11 f2 00 7f c8 55 80 77 03 bc ba f4 a4 3b 81
       2.2230468e-38 -7.877942e-39 -0.0014344294 -3.4464824e-38
0000f0 d0 b8 61 00 b0 66 38 00 b9 de 10 00 be 0f 40 3d
       8.974341e-39 5.179625e-39 1.549266e-39 0.046890013
000100 5c d8 43 81 cb 90 00 81 48 71 0e 81 b6 ed 29 01
       -3.5971074e-38 -2.361377e-38 -2.6162556e-38 3.1210947e-38
000110 df b9 fb 3b 9c 7e ca bc c8 9d 28 3c b3 05 6b bd
       0.0076820697 -0.024718575 0.010291524 -0.057378482
000120 e7 c1 1d 3e 7a 8c 33 3e 69 68 b7 3d 35 38 dc bd
       0.15405999 0.17534056 0.089554615 -0.10752908
000130 3f 00 6c bc 1b 7e 55 3d 97 b1 e6 bd a4 9a a8 bd
       -0.014404356 0.052122217 -0.11264341 -0.0823262
000140 73 7c a0 bd de b7 42 bd 45 8e 2d 3c a5 4f 00 be
       -0.07836237 -0.04753863 0.010593002 -0.12530382
000150 86 5a 79 bb 6b a5 27 bd 78 22 88 3c c3 68 a0 3c
       -0.003804834 -0.04092924 0.016617998 0.019581204
000160 a8 63 9e bd d7 3c 38 3d 53 6d 25 3d 31 e8 0c be
       -0.07733852 0.044979896 0.040387463 -0.13760449
000170 66 d1 0c bd 0a 8c c9 bc 8f 89 88 3d c9 38 b9 3c
       -0.034379385 -0.024602909 0.06666862 0.022610085
000180 a9 ba 34 3d ef 80 c1 3b bc 7e c7 b7 18 a3 85 b7
       0.044123325 0.0059052627 -2.3781664e-05 -1.5930782e-05
000190 13 a9 f0 bd 9c c1 fc 3d 9c 0d e3 39 87 48 65 ba
       -0.11750998 0.123416156 0.00043306954 -0.0008746464
0001a0 f6 ee f0 bd d7 70 f8 bc 57 d9 51 3d 66 46 dd 3d
       -0.11764328 -0.030327244 0.051232662 0.10804443
0001b0 9c 23 18 80 92 78 4a 81 12 82 46 81 10 0e 14 80
       -2.216826e-39 -3.7188045e-38 -3.6460177e-38 -1.841755e-39
0001c0 f6 d8 03 3e e8 ea 31 81 46 6b 72 00 a0 cc 09 01
       0.12875733 -3.2678303e-38 1.0507729e-38 2.5309737e-38
0001d0 8e 22 3d 01 59 a0 c9 3d 9c a7 42 01 cf c6 54 00
       3.473861e-38 0.09845037 3.5752426e-38 7.785501e-39
0001e0 13 be 8a 01 19 52 1c 01 e5 d4 b5 3d e0 74 28 81
       5.0965937e-38 2.8711577e-38 0.08878497 -3.094058e-38
0001f0 37 6c 2b 81 99 a3 68 00 ab d7 50 80 5b 55 84 3d
       -3.148538e-38 9.60958e-39 -7.424207e-39 0.06461593
000200 16 1b c5 80 04 c5 2f 00 22 a6 39 01 b4 fc 79 80
       -1.810131e-38 4.386944e-39 3.4098328e-38 -1.1202748e-38
000210 36 0f 52 3d 01 89 18 81 3a 64 09 80 26 06 08 81
       0.051284038 -2.8016286e-38 -8.62474e-40 -2.4983666e-38
000220 49 3b e1 00 e5 f5 15 bd a8 12 1f 81 2b e1 94 01
       2.0684254e-38 -0.036611456 -2.9217073e-38 5.4689714e-38
000230 0f be 79 00 e4 b5 2a 81 6b 63 af bc f4 a6 37 81
       1.1180275e-38 -3.135457e-38 -0.02140971 -3.3731575e-38
000240 8e 2c 19 01 4e 79 8e 81 47 5f 11 81 5a 02 a5 bd
       2.8133628e-38 -5.2336626e-38 -2.6700652e-38 -0.08057089
000250 13 f6 29 00 3c 60 37 00 da 63 6b 00 23 f8 31 81
       3.85353e-39 5.085475e-39 9.862218e-39 -3.2687795e-38
000260 3f 53 a9 bd 16 41 21 80 9d 69 08 00 34 90 29 01
       -0.08267831 -3.05392e-39 7.72571e-40 3.1143858e-38
000270 0a 78 3f 80 53 ed b4 bd 41 4b 21 81 8b 14 57 80
       -5.828698e-39 -0.088343285 -2.9625022e-38 -7.997058e-39
000280 a7 6d 47 00 f4 3f 23 01 4f 46 da bd f4 e9 b1 80
       6.559656e-39 2.9984256e-38 -0.106579416 -1.633881e-38
000290 16 97 01 81 b7 2b fc 00 5a f2 51 81 1d 12 fa 3c
       -2.3801957e-38 2.3158227e-38 -3.8561116e-38 0.030526215
0002a0 4c 31 1f bd 46 d6 9c 3e 9f 7c ce 3d 65 6d 22 3e
       -0.038865373 0.30632228 0.10082363 0.15862043
0002b0 3d c6 2f 3d da 59 17 be ba e7 26 be c7 11 17 bc
       0.042913664 -0.1478037 -0.16299334 -0.009220547
0002c0 69 d9 e2 bd 46 90 2a be b8 b9 66 be 75 d1 a6 be
       -0.11076624 -0.16656598 -0.22531784 -0.32581678
0002d0 ab 97 13 3d 09 97 37 be 54 a4 be be 44 93 e3 3d
       0.036033314 -0.17928709 -0.37234747 0.11112073
0002e0 62 fd 62 be 27 a5 b4 be 96 51 7b 3d 89 b9 31 3d
       -0.2216697 -0.3528225 0.061357103 0.04338983
0002f0 30 b9 60 be 64 d2 8f be 9f 2b c7 be d4 53 12 3d
       -0.21945643 -0.28090203 -0.38900468 0.035724476
000300 3b ae 52 3d a5 87 67 3c 66 23 bc 3c 48 be 8c bd
       0.05143569 0.014131461 0.022966098 -0.06872231
000310 35 f9 30 bc 11 25 4d 3d 75 b6 55 ba 10 5d 66 3e
       -0.010801603 0.050084177 -0.00081524934 0.22496438
000320 8a 76 e2 bb c9 eb 33 3a b1 55 12 3a 1c 1c 31 3e
       -0.0069111036 0.0006863443 0.0005582227 0.17295879
000330 e8 30 df 3d e0 40 00 be d9 65 f3 bd 4b 43 12 00
       0.10898 -0.12524748 -0.1188466 1.677179e-39
000340 d2 4d 04 01 51 97 b4 00 ee 82 f9 00 db c1 db bd
       2.4300404e-38 1.6584671e-38 2.2914007e-38 -0.10730334
000350 84 01 01 01 ca 4e 7b 81 62 e1 43 01 6c 6b f0 80
       2.3694645e-38 -4.6157947e-38 3.5977548e-38 -2.2079055e-38
000360 ac e0 6f bd 80 61 08 01 d8 29 40 81 05 01 33 81
       -0.058563873 2.5049208e-38 -3.5294852e-38 -3.287784e-38
000370 1b a0 66 00 e0 d5 bc bd a5 e3 f5 00 5d a2 16 80
       9.424656e-39 -0.09220481 2.258136e-38 -2.078626e-39
000380 62 c0 4c 81 90 6c 22 01 72 53 0a 3d ad 92 0e 81
       -3.760691e-38 2.983259e-38 0.033770986 -2.6186516e-38
000390 3f 43 76 00 90 4b 30 81 0f a8 11 00 ca 69 18 3d
       1.0860712e-38 -3.2380308e-38 1.621491e-39 0.037210263
0003a0 0f ed 32 81 eb c6 3b 00 6a 30 0c 81 80 24 38 81
       -3.2863518e-38 5.489653e-39 -2.5748674e-38 -3.382165e-38
0003b0 d2 aa 3e bd 60 25 36 81 49 16 7b 01 72 b7 4f 80
       -0.046549626 -3.3454936e-38 4.6117408e-38 -7.320812e-39
0003c0 b1 4a 1e 80 d2 e5 4e 3d 5d 49 73 80 26 bd 34 00
       -2.781859e-39 0.050512142 -1.05874e-38 4.8433e-39
0003d0 3b fe 8c 81 6c 98 48 01 0b 4b 58 3d 10 e8 43 01
       -5.179268e-38 3.6843556e-38 0.05280594 3.598234e-38
0003e0 5c af a8 80 8e 13 02 00 ea 34 59 80 89 25 0d 3d
       -1.549127e-38 1.90686e-40 -8.192341e-39 0.034459624
0003f0 07 4e 3b 01 60 92 d8 00 d3 39 34 00 05 af 3e 80
       3.4402457e-38 1.9888977e-38 4.796189e-39 -5.756586e-39

generative.shared_net.0.bias f4 [100]
000000 bf ca e1 3d b4 27 e1 3d 57 a9 b9 3d ef 83 4d bd
       0.11024999 0.10993901 0.09065502 -0.05017465
000010 5c 39 3b 3e 6e ae 60 3e ad 97 9d 3c d9 90 0d 3e
       0.182836 0.2194154 0.019237364 0.13824786
000020 44 fb 80 3e 90 76 d0 3d e3 dc d8 3d 79 e3 42 3e
       0.251917 0.10178864 0.10589006 0.19032086
000030 d2 01 54 bd 37 b1 06 3e 87 c9 54 3e 69 cc 46 3e
       -0.05175955 0.1315354 0.20780002 0.19413914
000040 a2 f6 03 3e 4c 7b 08 3e d5 6c c3 3d 35 43 36 3e
       0.12887052 0.13328284 0.095422424 0.17799075
000050 d5 95 ef 3c d6 77 dc 3d 90 c3 c5 3c 9f 63 17 3c
       0.02924625 0.107650444 0.024141103 0.00924006
000060 cb 94 65 3e af f0 45 3d 98 5e 47 3d a1 57 49 3d
       0.22420041 0.048325237 0.048674196 0.049155835
000070 31 78 e7 3d 28 f9 58 bd 69 2c c6 bc 14 7d fe 3c
       0.113022216 -0.05297199 -0.024191098 0.031065501
000080 dd 66 7f 3e 6f 78 7f 3e ab e9 a7 3b eb 56 30 3e
       0.24941583 0.24948286 0.005124291 0.17220657
000090 fa 21 40 bc e7 00 f7 3c f2 7d 55 3e c7 fa d4 3d
       -0.011726851 0.030151797 0.20848826 0.103993945
0000a0 b4 7e 6f 3e 97 ab 32 3e 06 c1 57 3e 8f d7 e4 3d
       0.23388177 0.17448269 0.21069726 0.11173927
0000b0 42 c0 94 3d 8f a0 3b bd 88 22 12 3e 94 76 f2 3d
       0.07263233 -0.045807417 0.14270985 0.11839023
0000c0 b3 a0 9f bd e8 be 1c 3e db fa 85 bb 2b 1d 5d 3e
       -0.07794323 0.153072 -0.004088742 0.21593158
0000d0 9b 3d 03 be 2f a9 13 3e a6 ef 4a 3e 93 49 31 3e
       -0.1281647 0.14420007 0.19817981 0.17313223
0000e0 3a dc 9a 3d ed 44 d7 3d 59 0e 63 3e 27 d3 8a 3e
       0.07561536 0.105111934 0.22173442 0.2711422
0000f0 f6 2c 28 3e af 0b 26 3e b5 f8 3f 3e be 9b a5 3e
       0.16423401 0.16215394 0.18747218 0.32345384
000100 7b ef 52 3e 77 e4 8d 3e 4d b8 18 bd 07 aa 4a 3e
       0.20599167 0.27713367 -0.037285138 0.19791423
000110 79 91 46 3d 55 e5 6e 3e 0e e7 f4 bd 34 2e ec 3d
       0.048478577 0.2332967 -0.11958133 0.1153225
000120 74 31 99 3d f5 7a d8 3d 9f 1e ab 3e 0a 26 26 3e
       0.074801356 0.10570327 0.334218 0.16225448
000130 96 8a 8d 3e 36 25 bb 3d e0 e1 55 3e 2b 4d 3f be
       0.27644795 0.09137957 0.20886946 -0.18681781
000140 20 fa 81 3e a5 0d e9 3d 6c 27 c0 3d d0 ab 68 bc
       0.25386143 0.113795556 0.09382519 -0.01420112
000150 1a 72 53 3e 0c a4 46 3d f2 34 98 3d bb 3e 76 3e
       0.20648995 0.04849629 0.074319735 0.24047367
000160 aa cf 28 3e 44 e6 d5 bd 3e 71 42 3e 54 f9 c1 3d
       0.16485468 -0.1044431 0.18988511 0.09471384
000170 09 05 70 3d a5 2a 7d 3e 89 06 d3 3c 15 d3 22 3e
       0.058598552 0.24723299 0.025759952 0.15900834
000180 a4 63 9e bd df 87 9b bd b1 b2 20 bd d4 61 91 3d
       -0.07733849 -0.07594275 -0.039232913 0.07098737
