model.pth (torch, 314357 bytes, 16 tensors)

variational.shared_net.0.weight f4 [100, 211]
00000000: 1800 f3bb 93e7 4abc 5e45 20ba 327c 603b
00000010: 856d 3bbc 21a6 443b 858d 4abb a057 0e3c
00000020: 05a6 153b 59ff 5f3b c7c9 683a a3a0 8bbb
00000030: 2493 693b 9702 d7bb ceef c23a fe24 94b9
00000040: d650 b03a a530 043b cb8f f6bb 5c7c 51bc
00000050: 1b84 9b39 1d0f 15bb 6a25 c73a 2719 4dbb
00000060: d923 2e3b 40a3 a8ba ffe2 6fbc ee8b cfba
00000070: d34b 0fbc f16d 3ebb 0ec1 cabb f510 7dbb
00000080: 20d9 b5bb fc0e 20bb b4a2 be3a 23e6 0abc
00000090: f235 a83b 30a3 103b 8be0 90bb 09ae 9db9
000000a0: 49d6 97bc 4496 6cbc 331d 943b c4a9 61bb
000000b0: d94a 7eba f536 87bb 2445 2ebc 2b79 0cbc
000000c0: d064 24bb 004c a239 bcf5 803b 316a 24bc
000000d0: c652 02b7 0ed1 25bb 06bb bcb8 9c39 9f3a
000000e0: dcb0 60bc 1a3e e3bb 561a 2ebc 7596 04bc
000000f0: fe24 eebc f8a9 a5bc 1974 cebd 7da5 1f3e
00000100: 64c4 8abc 6fbe 0bbd 07ae 59bd f4a6 71bd
00000110: 6870 8e3b 70d6 81bc 0793 1ebd 87ec 6b3e
00000120: 6469 32bd 5ae0 163e 4cfd 47bd 04da 3abd
00000130: e8b4 44bd f40a 1e3e d06b 9bbc c39b 4ebc
00000140: 88be 9abc a042 6c3e 5edf 6f3e 3d43 9cbd
00000150: 882c 08bd d5b1 8abd 9d29 33bd d94b 00bd
00000160: 28f4 053e 8999 afbc e509 563e c9b7 e73d
00000170: bb6f 06bd ceff c6bd d93a ad3c a6f1 8bbc
00000180: 8ddd d0bc 7848 fabc 9727 93bd 6ff5 2e3c
00000190: 2be8 1ebc c421 763b 7fa2 1ebd 5147 f43a
000001a0: f96f 04bd a5b3 54bb 427b b8bb f332 06bb
000001b0: a4c2 63bb 2d6e fcbb 291d 2ebc 8728 d13b
000001c0: b67c 06bd c0fc 40bc 2745 bdbb 82c7 7abc
000001d0: c195 c2bb 825f 8ab8 2ebd 8fbb 1ed8 59bc
000001e0: 531b 1d3d 6465 1001 306e a480 3358 6400
000001f0: 298b ba80 1cf5 bbbc ea0b 4001 e017 1701
00000200: 9ea4 3c00 ba58 df80 d616 7f3b 9a55 0701
00000210: bac6 0d81 2e1b 0801 6279 0201 cee3 b7bc
00000220: e582 a200 e876 6480 5c86 4b80 d4e5 2d01
00000230: 1274 313b b028 ad80 0508 dd80 c028 0981
00000240: 713a 0e01 8753 373c 1f0a d880 a176 8b80
00000250: 2284 4581 8f95 0101 da41 c53c 7908 f500
00000260: c64b e880 72db 0d81 74b1 3b00 a298 df3b
00000270: 02d0 b480 de4d d380 b091 e980 a36d 5c01
00000280: ea1c c8bc 3eaa 6900 87a9 6300 3aa4 0a01
00000290: 86a0 1781 2b25 babc 5803 4180 e0ed fb80
000002a0: 0999 a000 ee35 3281 4a24 133d 5320 c500
000002b0: a727 fc00 0c14 b300 fd34 8080 4f70 f03c
000002c0: f2b1 0d81 bb6d 8300 1808 e100 3038 5e01
000002d0: d735 92be 5c60 3abe 8906 08be 20b1 1fbe
000002e0: 640e be3c 6eaa 043e cf69 843d ab48 e93d
000002f0: ee86 013e 282f e93d a577 153e 3068 c63d
00000300: 159e da3b fd87 6f3d 8d17 833c 1262 21be
00000310: fd21 b9be c538 4a3d a4dc d13d 525e 75bc
00000320: ec9d 903c 45f3 86bd 62a6 6abd 4c5e 87be
00000330: cd80 0ebb 2b0d bc3d 5235 933b a717 a5bd
00000340: 93d3 0bbe 7874 b03c 8737 ec3c ede6 50bd
00000350: 43f5 7ebd 8e2e 5dbd 3e64 8e3e f015 92bd
00000360: a4c0 2dbd 0468 89bd a80d 6cbd ebc6 8fbd
00000370: 86ca 89bd 74ba 903e 657a 91bd 8e43 a2bd
00000380: 6277 97bd ff6d 4a3e 00bb 5bbd dc58 b33e
00000390: 02c7 903e 2055 6cbd 8bdc 40bd ce09 67bd
000003a0: 45d9 2f3e 405f 17bd 9546 23bd 3ee9 14bd
000003b0: 3685 c7bc f5cc 23bd b106 efbc d97f b3bc
000003c0: d3aa 8ebc 6ff3 0fbc f513 2dbc 1299 4abc
000003d0: 0507 a9bc c681 54bc becd bbbc 0a95 debb
000003e0: 9c0b 133d e440 aabb e05c 88bb b71e dcbb
000003f0: def5 a9bc c552 acbb 14a2 01bc e2b4 f0bb
-0.0074157827 -0.012384313 -0.0006113852 0.0034253714 -0.011439686 0.0030006247 -0.0030907106 0.008687884
0.002283455 0.0034179299 0.0008880165 -0.0042610927 0.003564068 -0.006561588 0.0014872493 -0.0002825632
0.0013451825 0.0020170596 -0.0075244657 -0.012785997 0.0002966233 -0.0022744604 0.0015193645 -0.003129551
0.002657166 -0.0012866035 -0.014641522 -0.0015834549 -0.008746105 -0.002905723 -0.0061875647 -0.0038614844
-0.005549565 -0.0024422994 0.0014544339 -0.00847772 0.005133384 0.0022069924 -0.004421299 -0.0003007504
-0.018534796 -0.014440123 0.0045200824 -0.0034433464 -0.0009700484 -0.0041264244 -0.010636602 -0.008573811
-0.0025084503 0.00030955672 0.003935544 -0.010035084 -7.767876e-06 -0.0025301608 -8.9993744e-05 0.0012147906
-0.013714042 -0.0069348933 -0.010626396 -0.008092512 -0.029070374 -0.020222649 -0.100807376 0.15590473
-0.01693935 -0.03411716 -0.05314448 -0.05899711 0.004346896 -0.015849322 -0.038714435 0.23039447
-0.04355754 0.14734021 -0.048825547 -0.045618072 -0.04802409 0.15433866 -0.018972307 -0.012610379
-0.01888968 0.2307229 0.23425052 -0.07630012 -0.033245593 -0.067722 -0.043740857 -0.031322334
0.1308142 -0.021435516 0.20902212 0.11314351 -0.0328214 -0.097167596 0.021146225 -0.017083
-0.025496269 -0.030552134 -0.071852855 0.010678633 -0.009698908 0.0037556747 -0.038729187 0.0018636977
-0.032333348 -0.003245571 -0.005629928 -0.0020477145 -0.0034753466 -0.0077035637 -0.0106270695 0.006383005
-0.032833777 -0.01177901 -0.005776066 -0.015306355 -0.005938262 -6.5981425e-05 -0.0043865656 -0.013296155
0.038356137 2.6521367e-38 -1.5100549e-38 9.21519e-39 -1.7131324e-38 -0.022944026 3.5273378e-38 2.775145e-38
5.569183e-39 -2.0511145e-38 0.0038923523 2.4857e-38 -2.604019e-38 2.4998755e-38 2.3964317e-38 -0.022447493
1.4924306e-38 -9.226205e-39 -6.935861e-39 3.1939975e-38 0.002707724 -1.5902137e-38 -2.0298522e-38 -2.5192163e-38
2.612321e-38 0.011189348 -1.9840098e-38 -1.280769e-38 -3.6277986e-38 2.380086e-38 0.024079252 2.2502736e-38
-2.1333017e-38 -2.6055054e-38 5.481952e-39 0.006823615 -1.6605008e-38 -1.9405223e-38 -2.1449933e-38 4.048628e-38
-0.02442785 9.703798e-39 9.152529e-39 2.5464424e-38 -2.784949e-38 -0.022722801 -5.970507e-39 -2.3136043e-38
1.4748578e-38 -3.273213e-38 0.03592328 1.8103188e-38 2.315677e-38 1.6445745e-38 -1.1773952e-38 0.029350428
-2.602528e-38 1.2069814e-38 2.066589e-38 4.0815273e-38 -0.28556702 -0.1820082 -0.13283743 -0.15594912
0.023200221 0.12955639 0.06465494 0.113908134 0.12649128 0.113859475 0.14596422 0.09687841
0.006671677 0.058479298 0.01600244 -0.15760067 -0.36158744 0.049370546 0.10247162 -0.014976101
0.017653428 -0.06589369 -0.05728758 -0.2643913 -0.0021744252 0.09182199 0.0044924403 -0.08061152
-0.13654928 0.021539912 0.028835071 -0.051001478 -0.06224562 -0.053999476 0.27810854 -0.071330905
-0.042420045 -0.067092925 -0.05763021 -0.070203625 -0.067280814 0.28267252 -0.07103423 -0.07923041
-0.07395817 0.19768523 -0.053645134 0.35028732 0.2827683 -0.05769837 -0.047085326 -0.056405835
0.17172725 -0.03695607 -0.039862234 -0.03635525 -0.024355512 -0.039990384 -0.029177995 -0.021911548
-0.01741544 -0.008786066 -0.01056384 -0.012365596 -0.02063323 -0.0129703935 -0.022925254 -0.006792669
0.035899743 -0.005195724 -0.004161462 -0.0067175287 -0.020747121 -0.0052588903 -0.007912178 -0.0073457817

variational.shared_net.0.bias f4 [100]
00000000: a12b 3e3d 9b78 30bf 3a31 37be 0b82 c5be
00000010: 432f 22bd b2e7 db3d 1a5c a3bd bbde 463e
00000020: fd64 f4bd f163 1d3e 4aa0 36be e1b2 0ebd
00000030: b44f 8abc 0d4f 533d 0495 193e 3c6a 503e
00000040: 3feb 933e b63b 11bf b96c 413c 4d85 193e
00000050: fb2d 1ebf 1550 09bd e4cf 133e ca88 16be
00000060: 200a 99be 02d4 a53e 7d35 e2be b888 92be
00000070: a246 83be 8138 ccbe 656f 9b3d 294c e53e
00000080: c233 0c3e 3983 3b3e eceb f53d 95ac b03e
00000090: 843c 18bd 202c f13d bd67 4bbd 299a 223e
000000a0: 2842 953e 9990 fc3c 89bf be3d 5550 bc3d
000000b0: 5b60 4f3c d695 813e c43f 793d cf08 2d3e
000000c0: cea3 6a3e 868c 9e3d 9abb 3b3e 6074 10bf
000000d0: 1bed af3e ab8c c83d f57b d83e 67d9 bc3d
000000e0: 9bbf 583d f780 7c3d 9d3a 97be 8c51 f1be
000000f0: 17e0 da3d 2b39 ca3d c519 ff3e 3871 f83d
00000100: 1dc4 00bf 69e8 503e 4d63 8bbe 5780 3ebc
00000110: 28a7 9b3c c97a 463e 6fd7 3bbc aba5 843e
00000120: d030 db3e 1cd6 64bc 40c6 273e 5f6a 8fbd
00000130: faef 1ebd 7441 a83e d79e d23e d032 b3bc
00000140: b52a af3e 9f30 e1be c210 333c 831d 85bc
00000150: 8174 c63c e12d ffbd 9014 3bbe 6edf 1f3d
00000160: a2cb 38bc 71e5 33be 135b 34be ed16 fb3c
00000170: 604f f43c dc15 393e 9587 5f3d c64c 373d
00000180: dbf4 373e 96ee bdbe 99b0 a43e fd88 d33e
0.046428327 -0.6893403 -0.17889872 -0.38575777 -0.039595854 0.10737552 -0.07976551 0.19420902
-0.119333245 0.15370156 -0.17834583 -0.03483856 -0.016883709 0.05158906 0.14998251 0.20353025
0.28890416 -0.56731737 0.011805707 0.14992256 -0.6178891 -0.033523638 0.14434773 -0.14700618
-0.29890537 0.32388312 -0.44181433 -0.28619933 -0.25639826 -0.3988686 0.07589606 0.44784668
0.13691619 0.18311776 0.12007889 0.3450667 -0.037167087 0.11775994 -0.04965948 0.1587912
0.29152036 0.030830668 0.09313876 0.091950096 0.01265725 0.25309628 0.060851827 0.16897891
0.22914049 0.077416465 0.18333283 -0.56427574 0.34360585 0.09792455 0.42282072 0.09221154
0.052917104 0.061646428 -0.29536906 -0.47132528 0.10687273 0.09874185 0.49824348 0.1213097
-0.50299245 0.20401157 -0.27224198 -0.011627278 0.019000605 0.19382776 -0.011464938 0.25907645
0.42810678 -0.013967063 0.1638422 -0.070027106 -0.03880308 0.32862437 0.4113681 -0.021874815
0.3421227 -0.43982407 0.010929288 -0.016249424 0.024225475 -0.124599226 -0.18269563 0.03903144
-0.011279019 -0.17567994 -0.17612867 0.03065058 0.029823005 0.18074745 0.05457266 0.04475095
0.17964499 -0.3709609 0.32165983 0.4131545

variational.shared_net.2.weight f4 [100, 100]
00000000: ee08 86bc cc88 ebbc eef0 0e3d 31d3 1cbe
00000010: 9966 83bd c22d 533d fd6d 74bd 0e28 073d
00000020: a661 3e3d 6b76 05bc 8677 813d a933 a5bd
00000030: 4e42 6cbd 4581 bf3d 9e94 b63d 2666 2a3d
00000040: b8db a0bd f99d 62be 1fc0 133d b996 35bb
00000050: 893a c9bd 3eaa a03c 16a0 c83c 9f52 30be
00000060: 999e d0bd f326 fd3c a0a3 813d d9ad 6cbd
00000070: 755b a23c ef2a aabd 6c4b 363d 9366 a93d
00000080: 67e3 29bd af74 45be cd13 9dbc b016 c7bd
00000090: 55f1 40bd 9901 173d a8c8 89bd c893 dfbd
000000a0: d2e2 84be c319 a3bd f6b7 6dbd 5d26 7ebc
000000b0: 121b 63bd d9a8 8c3d b05f 803d 5ef4 85bd
000000c0: 8fd8 1dbc 20fd c03d cdfe 603c b3d2 85be
000000d0: bba4 32bd f9b8 6fbd def6 dabc e041 74bd
000000e0: 4b8f 8b3d 8414 90bd 46e2 043d 7ed3 d73d
000000f0: b77c 113d ee2c 153d 640f 153d aad1 f2bd
00000100: 883a afbe de31 a63c 479d 23be 6122 7b3d
00000110: 55b4 553d 5f39 273b 7431 ea3d eb2b dfbd
00000120: 8e45 c1bd 3b6f c5bd 3f2a cc3d ad47 26be
00000130: 15cd 553d f219 24be 1046 d23c bcaf 98bd
00000140: 0425 08bd 74a5 9fbe 2b29 8fbd 6abc 8f3d
00000150: fcfd e7bd bd86 4cbd 9a19 a7bd 3dd6 903d
00000160: 6c54 403c 957b 833d cc76 9dbd 65d0 873c
00000170: b294 80bd f384 19bd 612f cfbd c896 3fbd
00000180: 767d 2abe a4cd 09be 1118 27be 9838 403d
00000190: 2e57 87bd c27a 47be cce2 b5bd e458 1b3c
000001a0: cfd7 2b3d d6ab 623d e742 36bd 9bf1 55bc
000001b0: ca29 f0bd d7dc df3d c0e5 9bbd 888f 28bd
000001c0: bf8b 84bd 1507 c83d e264 65bd 860c 5fbd
000001d0: 14b4 05bd 7907 74bd b18b 78bd 064e 9d3d
000001e0: 88df fabd efe8 4a3b 53c2 a6bd 89ca c5bc
000001f0: ed36 5fbb 5443 dabd 02ba 49bc d047 14be
00000200: 3e05 a23b 8ac3 9ebd c928 2ebd a5b2 03be
00000210: daf9 5ebc d28d 4a3d 32ea c3bd 5ac6 b0bd
00000220: 658c 0a3d 78ad 75bd 91a8 a1bc 612e 63bb
00000230: 889e 3cbd 780f e23d 6059 c1bc 9d19 ccbd
00000240: 0c8c e93d 941a 843c fb90 ae3c e8b9 683d
00000250: 47ef b8bd dcf9 6abd 0949 05bd 2447 26bd
00000260: 946f f33c 751a 05bd 6a35 81bd b379 83bd
00000270: 1a18 66bd 0167 d2bc 99ce edbd 3739 2bbe
00000280: 22ed c1bd 3a6f 9ebd 366a a43d 84a8 023c
00000290: e327 69bd 9d02 56bd ddf9 e9bc 6430 8c3d
000002a0: 3c13 c4bd 4e8b 823d 5c86 533b d750 38bd
000002b0: 164c 92bd 9434 14bd 14a4 ba3d b272 c1bb
000002c0: 6309 a6bc 4bc1 123c c3bd 453d 4847 913d
000002d0: f351 2bbe c07d c93b f0ba dd3c eb2b f0bb
000002e0: e311 9c3d 4eb8 debb 921d 26bd 7f54 bc3d
000002f0: b292 4dbd 6329 2bbe 6675 393c 397f 483d
00000300: ee21 62bd c152 69bc b6cb 5e3d 66e3 35bc
00000310: 8b2c 4bbc 9373 00bd 8fbf e5bd c018 45bd
00000320: 4210 91bc 780f a9be cc8c d3bd 3078 49be
00000330: 69b8 b63d 5f47 2b3d 57f3 0abd 95e9 603d
00000340: 5685 14be 3068 a2bc a913 093d 8729 c13c
00000350: f95d 95bc 9741 2c3e d6dd 743e 4a5c 823e
00000360: 6719 69bc c653 66be 11cc 1e3e 3424 ab3d
00000370: 0e8a 2c3c 8308 263d 35b2 9bbc 3e4a 26bd
00000380: 1b2d a3bd ac70 46be b937 113e 5d7d fd3d
00000390: 0364 11be c07d 993d ae9d 5fbc 933e b73e
000003a0: 87d4 533d 185b 72be a230 39bb 68c3 1b3e
000003b0: 7bdd 9d3d c71c 73bd 3605 b3bd e61e a73d
000003c0: 6be1 38be ccf6 333d 0e27 203d 3dd9 b4bd
000003d0: d418 84bc 5809 ca3e 8f29 f5bc 80c5 96bd
000003e0: 1e25 c63d e3e4 253d fb8a 6fbc 7b36 2ebe
000003f0: 301b 89bc fe73 d6bc 1b56 583d b922 183e
-0.01636168 -0.028751753 0.034897737 -0.15314938 -0.06416053 0.05155731 -0.059675205 0.032997184
0.046479844 -0.008145909 0.063216254 -0.08066494 -0.05768042 0.09350828 0.08915065 0.041601323
-0.07854408 -0.22130574 0.036071893 -0.0027708246 -0.09825618 0.019612428 0.024490397 -0.17219017
-0.101865 0.030902361 0.06330037 -0.05778298 0.019819 -0.0830897 0.04450552 0.082715176
-0.041476633 -0.19282793 -0.01917448 -0.09721124 -0.047105152 0.036866758 -0.06727725 -0.10916859
-0.259543 -0.07963898 -0.058036767 -0.015512076 -0.055445738 0.06868143 0.06268251 -0.0654075
-0.009634151 0.0942328 0.013732624 -0.26137313 -0.04361413 -0.058526013 -0.026729044 -0.059633136
0.0681444 -0.07035163 0.032442354 0.10538386 0.035519328 0.0364198 0.03639163 -0.118563965
-0.34224343 0.02028745 -0.15977965 0.061312083 0.05217393 0.0025516374 0.11435214 -0.108970486
-0.09437095 -0.09640356 0.09968995 -0.1623828 0.052197535 -0.16025522 0.025668174 -0.07455394
-0.033238426 -0.31180918 -0.06990274 0.07018359 -0.113277406 -0.049933184 -0.0815918 0.07072113
0.011738878 0.06420056 -0.07688674 0.016578862 -0.062783614 -0.037480306 -0.10116459 -0.046774656
-0.16649422 -0.13457352 -0.16317774 0.046928972 -0.06608425 -0.19480422 -0.08881149 0.009481642
0.041953858 0.055339657 -0.044497397 -0.0130580915 -0.11726721 0.10930794 -0.07612181 -0.041152507
-0.06471967 0.09766976 -0.056004412 -0.054455303 -0.03264244 -0.05957744 -0.060680095 0.076808974
-0.122496665 0.0030961593 -0.08142533 -0.024144428 -0.0034059838 -0.10657373 -0.012312414 -0.1448052
0.0049444726 -0.0775214 -0.042519365 -0.12861116 -0.013609374 0.049451657 -0.095661536 -0.086315826
0.033825297 -0.059979886 -0.019733699 -0.0034665095 -0.046049625 0.11038107 -0.023602188 -0.09965823
0.11403665 0.016125955 0.021309366 0.05681792 -0.090300135 -0.05736719 -0.032540355 -0.04059519
0.02971629 -0.032495935 -0.06309016 -0.06419697 -0.05617533 -0.025683882 -0.11611671 -0.16721044
-0.094690576 -0.077360585 0.08028071 0.007974748 -0.056922805 -0.052248586 -0.028561527 0.06845167
-0.09573981 0.063742265 0.003227613 -0.04499897 -0.071434185 -0.036182955 0.09113327 -0.0059035653
-0.020268148 0.008957217 0.048276674 0.07093674 -0.1673048 0.006149024 0.027066678 -0.007329454
0.07620599 -0.006796873 -0.040555544 0.09195804 -0.050188728 -0.16715007 0.011319494 0.048949454
-0.05520814 -0.0142409215 0.054393493 -0.011101579 -0.012400757 -0.03136022 -0.112181775 -0.048119307
-0.017707948 -0.33019614 -0.10329589 -0.19674754 0.08921892 0.04181611 -0.033923473 0.05491026
-0.14503989 -0.019825071 0.033466015 0.023579372 -0.018233286 0.16821896 0.23912749 0.25461036
-0.014227248 -0.22492895 0.15507533 0.083565146 0.010530962 0.04053546 -0.019005874 -0.040598147
-0.079675876 -0.19378918 0.14181413 0.12377427 -0.14198308 0.07494688 -0.013648434 0.35789928
0.051716354 -0.23667562 -0.0028257747 0.1521126 0.0770826 -0.059353616 -0.08741228 0.0816019
-0.1805474 0.043936536 0.039099745 -0.088304974 -0.01612512 0.39460254 -0.029927043 -0.07361889
0.09675048 0.040501487 -0.014620538 -0.1701297 -0.016736597 -0.026178356 0.05281649 0.14856996

variational.shared_net.2.bias f4 [100]
00000000: 1a35 f73b d45c 26bd 0289 073e bd42 4d3b
00000010: 82d2 163e 487a cebc b815 94bc 7996 15bc
00000020: af0f 1cbd d4f6 b7bd 8f4d 463d f01b 53be
00000030: 7cf7 123e 196c 3c3d 8e30 82bd 3eb5 42bc
00000040: d533 9bbd 42c1 953e a8d6 07be 94ab 6cbd
00000050: aaf5 5bbe b604 173d f942 d8bd b9f6 38bb
00000060: 6ab8 533f db9f 02be 4f6c 87bb 0743 2cbd
00000070: 8e44 7c3e 26e1 ffbd 6f22 71bc 70b9 163b
00000080: 4633 d83d 277d ba3d bd63 aebc bd2f 833d
00000090: fe42 0e3e 611a 163d 7c37 a0bc 6068 a33d
000000a0: 47d4 683e 1664 273c b081 363f 9fda 24be
000000b0: d77e 2f3d fed0 4a3e 1295 5bbc ad63 84bd
000000c0: 73dd f7bd 975b 113e 2843 2f3e 0bfd 353e
000000d0: a880 95bd 8670 263d 4a1a 243e 9b3e 0e3e
000000e0: 98ef 103d 15bd 1dbc 551d c23c 392e 223e
000000f0: d733 9cbd b3c4 e53c ac67 fe3b 1c3d 0f3c
00000100: b6b1 b8bd 60dd fdba 65df 1abd 604a 4fbe
00000110: 1d2a d0bd 74fd 80bd b779 ad3d 09ec 183c
00000120: 19c4 0dbd 95c2 9abc ca92 573d ac8d ad3e
00000130: 8de5 863e 7a1c dd3d f1ad 973b 369a ddbd
00000140: 0d34 cf3e c49d 18bd 5387 d7bd 243a d83e
00000150: c523 74be e698 033e aa52 c5bd 3c4a 6f3e
00000160: e3ea 123e 2e87 033d bcd7 c13c a24f dc3d
00000170: 5934 02bd 5c2b c93d 7714 ca3c bbbf f73c
00000180: 3e86 b3bd be96 67bc fedd a13d ae28 2dbd
0.007544172 -0.04061587 0.13235858 0.0031320297 0.1472874 -0.025204793 -0.018076763 -0.009130114
-0.038100895 -0.089826256 0.04841381 -0.20616126 0.1435222 0.046001527 -0.06356917 -0.011884032
-0.075782456 0.29249007 -0.13265479 -0.057780817 -0.21480432 0.036869727 -0.10559649 -0.002822323
0.8270327 -0.12756293 -0.0041327844 -0.04205611 0.24635527 -0.124941155 -0.014717682 0.0022998713
0.10556655 0.09105902 -0.021287793 0.0640559 0.13892743 0.03664625 -0.019557707 0.07978892
0.22737227 0.010216733 0.7129164 -0.16099022 0.042845573 0.19806287 -0.01340224 -0.06464324
-0.12102785 0.14195095 0.17115462 0.1777231 -0.0729993 0.040634654 0.16025653 0.1389107
0.035384744 -0.0096276 0.023695627 0.15837945 -0.07627075 0.028047895 0.0077638235 0.008742597
-0.09018271 -0.0019368343 -0.037810702 -0.20243216 -0.101642825 -0.06298342 0.08470481 0.009333619
-0.03461084 -0.018891612 0.052630223 0.3389715 0.26347008 0.10796447 0.0046288897 -0.10820429
0.404694 -0.037259832 -0.10523858 0.42231858 -0.2384177 0.12851295 -0.096349075 0.23368162
0.14347415 0.03211134 0.02366244 0.10757376 -0.031788204 0.09822723 0.024667962 0.030242791
-0.08765839 -0.014135061 0.0790367 -0.042275123

variational.z_mean_net.0.weight f4 [8, 100]
00000000: d92d 87bc 4fba babd 80cf ad3d 43d6 353d
00000010: 9344 f0bd 8bef 193d 5158 04bd 0b59 0abd
00000020: 7873 cf3d c9fc 8a3d f3c5 5ebd 6610 88bc
00000030: d18e 1f3d 1776 1abd a0a4 0abd e3c4 2bbd
00000040: 31ea a63d 3ad6 c03c 91c8 b43d f59f 023b
00000050: e108 a83c d565 d93c 41ec 523c cc7d f03c
00000060: df0c 04bb aaeb 93bd 3f6d b13b 808f ca3d
00000070: 56ad 7bbd 8983 57bc 12da 8fbd 3c8b 8b3d
00000080: bd02 c13b 3ed0 783d 772a cebc 3e48 07bd
00000090: 6175 2d3d 4ab8 6c3d 3df9 90bd de0b 39bd
000000a0: 6bf9 26bc 6bb4 c0bc 1b95 9cbc ef67 123c
000000b0: 8e38 f6bd ea11 91bc cd0a 913c 41ac 053d
000000c0: 3678 2bbd 74d9 c6bd f250 77bd 7174 e6bc
000000d0: 40fa d2bb 04bc 75bd 5a27 3ebd 60f0 763d
000000e0: c69b bebd b00d 273d 3dab b9bd 7aca 463d
000000f0: 5985 c93d 1e51 85bd e283 b4bd cdd8 6fbd
00000100: 602a 9f3d a73d 333d 2187 5b3d 94c4 453c
00000110: 978a 503d a7d9 863d 4824 02bb 7cd2 993c
00000120: 5fad 66bc 0142 02bd ba19 a33d 8e52 043d
00000130: 165d 3dbd 1397 85bd 9cb8 6abd b222 223d
00000140: 9991 9d3c 51f2 783d e57d 463d fc8a 913d
00000150: df50 0c3d 5aae b8bc 3bba 883d bd9f 65bd
00000160: 6699 5ebc 6271 87bd 0de2 013d 43dc fe3c
00000170: da92 253d f8e6 4d3a 9ca0 5a3d 5819 b33d
00000180: 61c0 15bd 4568 373d 5ce0 6bbd c344 14bd
00000190: 2390 33be 3c93 c0bb 142f fabc e915 76bd
000001a0: d9a1 d13c 9ff9 533d a038 3cbd b246 a1bc
000001b0: f6a9 ea3c 93ea d93a fc5e 0ebe bc3b ba3e
000001c0: 2cf6 01be 9c70 d3bc 1a3c bb3d 2576 883d
000001d0: c100 3bbd 674c b9bd 2991 253d 4550 5b3e
000001e0: 566d d23e 76e9 503e 4cec 7dba 1e5e 843d
000001f0: e577 b4bd 9b8b 3b3c 5020 d73d 6b95 22bd
00000200: db64 81be 0d36 a23c 6759 d53c 93d7 733d
00000210: 9d4d 70bc ba78 ee3d d8e5 7dbe adac 8e3d
00000220: cfc6 513e cdb5 42bd 4966 543e 1e1d 6f3d
00000230: 63c8 603d da7f 3fbd 3224 47bd cc6b 81bd
00000240: 6ffe ed3c 5002 fa3b 9d03 ffbc 3d55 b03d
00000250: c679 4abd 394b 1b3d 01e2 aa3b d1b7 13bd
00000260: a190 9cbd 535b 20be 1478 9dbb 6e2a 423b
00000270: 7494 7b3d 988f 6dbd 3454 a73c 85fa 7ebc
00000280: a79b 6e3d 677a ccbd 94b3 693c 213f 01bc
00000290: aee2 2f3e 07e9 093d 9788 863d 9c5a 50bb
000002a0: 29b0 88bd 0ee2 393e f893 5fbc 24e7 f6bd
000002b0: 2424 913d 4926 fe3c 86ac 193d 7d09 2bbd
000002c0: fb10 8c3d 4a13 eebd 093f 3cbd f411 d13d
000002d0: 8490 fbbc b0ce 8a3e 8f45 20bd 75cc 1e3d
000002e0: 38a7 163d feb7 083e 8845 a9bd 0432 2d3c
000002f0: 55ec 09bd e15c 6b3d aabd 073e 052a 253f
00000300: b73c 78bd 139c 5e3d 0b1f 21bc 8b10 d6bd
00000310: 05d7 aebd 0484 533e da6e 783d efa0 a3be
00000320: 9cfe 303c d221 c73c 65b1 443c 0e20 043d
00000330: c146 8cbd a57b b3bc b126 5a3d a722 d1bc
00000340: f79a a63d 1c6c 9c3d 3908 80bd 787e babd
00000350: d8cd c3bd d695 b83d c6a4 a9bd 4fa8 203d
00000360: 363c 94bd 4e02 eb3c ae10 263c 5f37 10bd
00000370: 5644 aabd a49f 733d 12bb d5bd 6554 4cbc
00000380: 7330 8ebc 5650 e6bc fd00 89bd ba2d 733d
00000390: dcfc 86bd 57f4 6bbd 13f6 0ebd 321f adbd
000003a0: 3d24 eb3d ef23 db3c 646d 1abc 3686 583c
000003b0: 8c0d d43d eefc b4bd b5bd e9bd 2e6f 92bd
000003c0: 6e81 6c3c 3ba9 17bd 6773 2abd 43d0 64bd
000003d0: 91d2 6e3d c3b4 19bb fa6e a63b e363 263c
000003e0: 23b0 02be 99ce a1bd d15b 9dbd 923f d13c
000003f0: eddc f63d b0aa 293d 408b ca3d c874 843d
-0.016501354 -0.09117567 0.08486843 0.04439379 -0.117318295 0.03758196 -0.032310788 -0.033776324
0.10129446 0.06786496 -0.054387998 -0.016609382 0.03895456 -0.037710276 -0.033848405 -0.041935813
0.08150137 0.023539651 0.088273175 0.0019931768 0.020512046 0.026537815 0.01287371 0.02935686
-0.0020149273 -0.07222684 0.0054146345 0.09890652 -0.061444603 -0.013153919 -0.070240155 0.06813666
0.005890219 0.06074547 -0.025166733 -0.03302788 0.04234827 0.05779294 -0.070787884 -0.045177333
-0.010191302 -0.02352353 -0.019114068 0.0089359125 -0.12022506 -0.017708737 0.017705346 0.032634977
-0.04186269 -0.09709445 -0.06037993 -0.028131695 -0.0064385235 -0.05999376 -0.046424247 0.060287833
-0.09307055 0.040784538 -0.09065864 0.04853294 0.09839887 -0.065096125 -0.08814217 -0.058556367
0.07771754 0.043759968 0.053595666 0.012070794 0.05091342 0.06584483 -0.001985805 0.018777125
-0.014079421 -0.031801227 0.07963891 0.032305293 -0.04623135 -0.06522956 -0.057304963 0.03958387
0.019234465 0.060777966 0.048459906 0.07106587 0.034256812 -0.022544075 0.06676146 -0.05606054
-0.013586378 -0.06613423 0.03170972 0.031110888 0.04042325 0.00078545464 0.053375825 0.08745068
-0.03656042 0.044777174 -0.057587013 -0.03619839 -0.17535453 -0.0058769267 -0.030540027 -0.06007949
0.02558987 0.05175173 -0.04595244 -0.01968703 0.028645497 0.0016625695 -0.13903421 0.363737
-0.12691563 -0.025810532 0.09142323 0.06663159 -0.045655016 -0.09047776 0.04042164 0.21417339
0.41099042 0.20401558 -0.0009686395 0.06463264 -0.088119306 0.011446859 0.1050421 -0.039693277
-0.2527226 0.019801164 0.026043607 0.05953176 -0.014666942 0.116441205 -0.2479471 0.06966529
0.20485996 -0.04753666 0.20742144 0.058377378 0.054878604 -0.046752788 -0.048618503 -0.06319389
0.029051987 0.00762967 -0.031129653 0.08610008 -0.04943254 0.037913535 0.00521493 -0.036063973
-0.07644773 -0.15659837 -0.004805574 0.002962734 0.061420873 -0.05799827 0.020425893 -0.015562658
0.05825391 -0.09984284 0.014264006 -0.007888586 0.17176315 0.033669498 0.06569021 -0.0031792289
-0.06674225 0.1815264 -0.013646118 -0.12055805 0.070869714 0.031024115 0.037518047 -0.041757096
0.06839176 -0.11624773 -0.045958553 0.102085024 -0.030708559 0.27110815 -0.039128836 0.038769204
0.036780566 0.13351437 -0.08265215 0.010571007 -0.03367265 0.057461623 0.13255945 0.6451724
-0.060604777 0.054348063 -0.009834061 -0.10452374 -0.085371055 0.20655829 0.06065259 -0.3195872
0.010802891 0.024308119 0.012005185 0.032257132 -0.06849433 -0.021909544 0.053259555 -0.025529219
0.08135026 0.07637808 -0.06251568 -0.09106153 -0.09560746 0.09012954 -0.08283381 0.03922301
-0.07238047 0.028687622 0.010135813 -0.035209056 -0.08313815 0.059478417 -0.104360715 -0.012471293
-0.017357087 -0.028114479 -0.066896416 0.05936978 -0.06591198 -0.057606068 -0.034902643 -0.08453216
0.11481521 0.026750533 -0.009425495 0.013215592 0.10354146 -0.08837305 -0.11413137 -0.07150112
0.014435155 -0.037026625 -0.041613963 -0.055862676 0.05830628 -0.002345369 0.0050791474 0.010155651
-0.12762503 -0.079007335 -0.07683528 0.025543008 0.12053857 0.041422546 0.09889841 0.06467587

variational.z_mean_net.0.bias f4 [8]
00000000: 6d18 a33c 0c4b 6b3c e68c bcbb f502 28bd
00000010: 3a8b 92bd 6d89 b53d 1db6 d93d f0cf 8b3d
0.019909108 0.014361154 -0.005754101 -0.041018445 -0.071554616 0.088641025 0.106304385 0.0682677

variational.z_std_net.0.weight f4 [8, 100]
00000000: 8ce9 04bd 7efe d2bc b26a a4bd 1a8c aa3b
00000010: bb43 283d f817 bf3d 5a5c 7bbd f868 b33d
00000020: 71e2 8d3c 7304 6b3d 9349 943d fcf3 33bd
00000030: 6938 31be b811 e2bc fdc1 c13d e76a 763d
00000040: f0e0 d13d 613d 73be b5f0 ad3d 20ec 8cbd
00000050: ad07 853d 92f4 dbbd 7b06 233d 3a5d 9a3d
00000060: dafc 52bf 04f0 f03c a28f a1bd 56c4 67bc
00000070: 4077 89be 38a5 bcbc a774 3fbd 7964 4d3d
00000080: 367a f1bd 9573 ecbc bd43 52bd 645a 34be
00000090: 38b0 22be 5e65 e3bb aec7 babd ed51 88bd
000000a0: 1bfe 3bbe 6548 a03c f484 03bf 9109 fcbb
000000b0: 1f28 8dbd eafe d4bd ebdb 4fbd 48bb dc3c
000000c0: cbbc ac3d d23b a6bd 7a48 05be b6f4 eabc
000000d0: 99f9 323c ab40 85bd f53c c2bd a855 3cbd
000000e0: daa5 d7bd ba1c 803d fb9f 34bd a2a7 0fbd
000000f0: 901d 8fbd 3a34 1b3d 0649 a7bb 3ef1 ce3d
00000100: df23 773d 24d0 cb3d 9caa be3d c7fc a63c
00000110: defd 733d 461f d83c 69dc 25be e774 e73d
00000120: b3f0 63bc a495 9e3c c696 9d3c 12bb 5cbe
00000130: f4a1 16be b533 33be 5a16 8b3c 1955 a53b
00000140: e314 77be 6c15 a7bc 273f ea3d efb6 c5be
00000150: 8555 1d3d 84be 34bd 1f95 cf3d abe7 a8bd
00000160: f3c4 9dbd 0683 e5bc ab3b 95bc 721b 143e
00000170: c562 523c 5346 b7bd b341 0d3d 2e84 79bb
00000180: aa22 15bd 1c09 3c3c 49dd 88bd 78ca d3bb
00000190: 29c7 f7bb 45db ec3c 8c45 a4bc f792 51bd
000001a0: 33f8 943c d70b 803d cc06 883d f049 02bd
000001b0: 28be 3e3d bdd6 5cbd 378e 843b 95ca 613c
000001c0: 3c8a 853b 265d 7a3b d042 20bd 828b e7bc
000001d0: 928f 8e3c d5f2 97bc 34f6 a0bb b53a 123d
000001e0: 85b6 ebbc 5a06 0c3d f5ad cabb db40 70bd
000001f0: cdac ee3d a2d3 21bd 44a3 06bd 2da6 113c
00000200: 6028 d9bb d3d7 c93c ada2 3ebd d993 853d
00000210: 1296 85bd 9ccd e8bc 5204 df3b eee2 9ebc
00000220: cb0a 253d 9c78 9a3c f218 4f3c a079 43bd
00000230: 38c4 0e3d 88a8 e7bb e0b3 a13d b301 7f3d
00000240: 08fd b33c 985c 923c ddba 50bd 68bb 60ba
00000250: 294d d23c c3af 1b3d ed33 643d cd58 993b
00000260: 5510 84bd a408 45bd 38f0 0a3d 0b3d 8b3d
00000270: 03a2 02bd 0900 55bd 328d e5b9 1aea a53d
00000280: 440b be3c 2956 a0bd c9a2 2c3d fb65 3bbd
00000290: 31cd 933c 6098 49bd 5865 e83c d5ea 8e3d
000002a0: f081 e73c 2b01 00bd 8ab2 c63c 0496 4b3d
000002b0: 9861 12bd 328c 1c3d 04ec a5bb bef0 253d
000002c0: 1c30 033d 1619 153d b812 f23c b3ef 8e3c
000002d0: 84d4 a83d 9c7e 6abd f0f1 bdbb 5319 e23c
000002e0: a2c9 483d a4d4 55bc ec87 9dbd 4078 d3bc
000002f0: d00b c03c 5547 663d 7098 54bd bce9 13bd
00000300: c780 59bd 221d a13c 533a a93d 8ae3 28bb
00000310: 829a c5ba ab0a de3c c5f5 923d 40e3 acbb
00000320: 506d fe3c 6a37 503d c9dd e0bd f61d 8dbd
00000330: 9338 a3bd c586 213d df82 b33d 1dbc 8dbd
00000340: 07d9 683d 04fb 783c 4aec 8abc 9d3e 26bd
00000350: 032a 0cbe 014b 95bb 1ba2 ef3d 5bb5 0cbd
00000360: 77dc 9dbc c315 9dbe a762 4a3d 7644 ee3c
00000370: cb8a 003d b5fc 6dbd f21c 84bd 8873 1e3d
00000380: 7265 33bf 1cdf 2abc 9132 4a3d d1bd c2bc
00000390: 3f6d 61be e5ee 393c d34e 113d 977e 913c
000003a0: 6c0c 01be 488b b0bd 294c 473d 813a c2bd
000003b0: 6a5a 59be f081 dc3c 6b56 2ebe ea69 7b3d
000003c0: fc76 31be 03cd 34bc a098 07bf 0f5b ad3d
000003d0: b26c 00bc b405 22be addc 48bd ca06 293c
000003e0: 67c5 79bc 931e b3bc cec8 b2bd dfc1 8cbc
000003f0: 8bba 033d bf2c 39be 8fb6 c2bd 6ad3 d9bd
-0.03244929 -0.025756117 -0.08028163 0.0052046897 0.041080218 0.093307436 -0.06136737 0.087602556
0.01731989 0.05737729 0.07240596 -0.043933854 -0.17306675 -0.02759634 0.094608285 0.060160544
0.102479815 -0.23753883 0.08493177 -0.06880975 0.06495605 -0.107400075 0.039801102 0.07537313
-0.8241707 0.029411323 -0.07888724 -0.014145931 -0.26848793 -0.023028001 -0.046742108 0.050144646
-0.11790888 -0.028863708 -0.05133413 -0.17612606 -0.15887535 -0.006939574 -0.09120117 -0.06656251
-0.18358652 0.01956577 -0.51374745 -0.00769157 -0.06892418 -0.104001835 -0.05074684 0.026944771
0.08434447 -0.081168786 -0.13015929 -0.02868114 0.0109237665 -0.06506475 -0.09484283 -0.045980126
-0.105296806 0.06255479 -0.04409788 -0.035071976 -0.069880605 0.037891604 -0.0051051406 0.10104607
0.060336944 0.09951809 0.09309885 0.020384206 0.05956828 0.0263821 -0.16197361 0.11301594
-0.013912368 0.019358464 0.019236933 -0.21555737 -0.14710218 -0.17500193 0.016978431 0.005045545
-0.24129061 -0.020395957 0.114378266 -0.3861613 0.038411636 -0.044127002 0.101358645 -0.08247312
-0.07703581 -0.028016578 -0.018216928 0.14463595 0.012840931 -0.0894896 0.034486484 -0.003807317
-0.03641001 0.011476781 -0.06682832 -0.006463345 -0.0075615835 0.02891315 -0.020052694 -0.051165547
0.018184757 0.06252258 0.066419214 -0.031808794 0.046568066 -0.053915728 0.0040452736 0.0137812095
0.0040753167 0.0038202493 -0.039126217 -0.028264765 0.017402444 -0.018548409 -0.004912162 0.03570052
-0.028773556 0.034185745 -0.006185288 -0.0586556 0.11654053 -0.03950847 -0.032870546 0.008889717
-0.0066271275 0.024639046 -0.04654186 0.0652234 -0.06522764 -0.028418355 0.006805935 -0.019395318
0.040293496 0.01885634 0.012640225 -0.047723413 0.034855098 -0.007069651 0.078956366 0.06225748
0.02197124 0.017866418 -0.050959457 -0.00085728476 0.025671558 0.038009416 0.055713583 0.0046797753
-0.064484276 -0.048103943 0.033920497 0.067987524 -0.031892788 -0.052001987 -0.00043783482 0.08101292
0.023198731 -0.07828934 0.04214743 -0.045751553 0.018042179 -0.04921758 0.028368637 0.069783844
0.028260201 -0.031251114 0.024255056 0.049703613 -0.035737604 0.03821964 -0.0050635356 0.040512793
0.032028303 0.036400877 0.029549941 0.017448282 0.08243659 -0.05724965 -0.0057966635 0.027599966
0.049020417 -0.013051186 -0.07691941 -0.025814176 0.023443133 0.05622037 -0.05190319 -0.03611158
-0.053101327 0.019667212 0.082630776 -0.002577039 -0.0015075954 0.027104696 0.07175783 -0.0052761137
0.031057984 0.050834097 -0.10979802 -0.0689048 -0.07969775 0.039435167 0.08765196 -0.069206454
0.0568476 0.015196566 -0.016958375 -0.040587056 -0.13687901 -0.0045560603 0.11700841 -0.03435264
-0.019270165 -0.30680665 0.04941049 0.02908538 0.031382363 -0.05810233 -0.064508334 0.038684398
-0.7007667 -0.01042917 0.04936463 -0.023772152 -0.2201433 0.011348461 0.035475563 0.017760558
-0.12602395 -0.08620316 0.048656616 -0.09483815 -0.21225896 0.026917428 -0.17025153 0.061380304
-0.17330545 -0.011035207 -0.5296726 0.08464634 -0.007838415 -0.15822488 -0.049038578 0.01031656
-0.015244818 -0.021865165 -0.08729707 -0.017182289 0.032160323 -0.18083476 -0.095074765 -0.10636027

variational.z_std_net.0.bias f4 [8]
00000000: 1209 fbbe 17a1 46bd 575e a9be 9d05 a0be
00000010: 0033 8b3d c979 75be a43e 71bb 9232 c73d
-0.49030358 -0.04849347 -0.33079788 -0.31254283 0.06796837 -0.23972239 -0.0036811018 0.097264424

generative.shared_net.0.weight f4 [100, 99]
00000000: 6c1d 333e db3f 75ba ebe3 acbd acfd 973e
00000010: 2749 df38 1a45 afbd 8ab6 62bc 8472 86ba
00000020: 2e9a e73c 792b d580 ddb1 1781 8b9d 2001
00000030: f75f 5180 2201 0d3c 0b43 ae00 047b 1d01
00000040: ba98 1f01 3e50 f680 c5c4 8d3c 949c 2401
00000050: 4cd1 0e00 7c59 0681 5aa3 3600 eaf0 cb3c
00000060: 0d67 1d01 6df7 d380 68b1 5900 3e81 ff80
00000070: 75b3 ff3c 6018 a580 fada 3301 e815 e180
00000080: 46bc 5b80 5dde a23c 24e9 1b81 1cc5 fb00
00000090: a0e5 5f01 9e07 1881 ca4e 98bb 134c 1281
000000a0: 9a6c 7280 07a4 6601 0b64 2601 e72a 17bd
000000b0: 114c d500 521d 5a81 f2e1 6880 d651 3a80
000000c0: 684e 3cbc 5a96 5601 cac8 e480 93a3 8b80
000000d0: d018 6a00 1bb5 f5bc 009c 8a00 149d 3500
000000e0: 5848 3881 1ade 5d81 6876 6abd 0b01 9f80
000000f0: 975d 2601 26da 1781 f4f1 6081 34b5 73bc
00000100: 1608 0501 c59e 3f01 064c 0401 02f1 c000
00000110: f406 603d 391d 803d 5825 703d d693 9939
00000120: cd4f f5bb c046 5aba 0e81 d0b7 4eb2 85bb
00000130: 27d7 55bc 4ff6 053d eed1 d63d 6c6c 95bc
00000140: 3fe5 003d a846 2c3e 57a1 03bd 8aa4 96bd
00000150: a9dc 94bd 25b0 58be e638 9dbd 43f2 97bd
00000160: 58a2 343e b3a2 7c3d 1028 67bd d8f4 21be
00000170: b615 38bd 5692 7cbd 251a 48bd d796 ab3a
00000180: a348 003d 74fe 753a d024 263c 965d d5bd
00000190: e18c 27bb 2318 de3d 4f4a 5d3d fe6b bd38
000001a0: 9ff7 2e3d 06f1 b23a 683d 0c3a a428 863d
000001b0: b0de 4400 f091 7081 a382 2f00 78b3 1401
000001c0: b2de 3f3d 2a23 1481 6e78 2581 c5f2 2d01
000001d0: e91b 6480 20d0 603e 8ab1 7b01 101d 6500
000001e0: b308 2681 9e11 0781 d86e 483e 74d0 b580
000001f0: e4fd 8b80 ce6d de00 62e6 0701 fc7b b53d
00000200: ce4f 1701 2c6e 1281 d294 d180 3cb8 5280
00000210: d650 b93e 6846 1401 b858 bf00 139b f300
00000220: 93a4 2601 aaa6 bbb8 a6b5 4980 c93d f200
00000230: 70d3 3980 dab6 1b81 70ca 3a3d 3019 7181
00000240: a66a 6301 f8f9 5c01 c1a5 d100 2ca6 40be
00000250: 9622 3701 424c b480 1822 1c81 3a35 6e81
00000260: 74a9 5bbe 48cc 6000 dac0 7d81 8146 2201
00000270: 0fe0 9f00 11b5 1ebe b032 7481 3451 1781
00000280: 0669 7d80 267b 2f80 3759 f9bd 1e78 4281
00000290: 6256 6f81 3848 7680 ae33 0b01 8c61 f3bd
000002a0: 2ee3 c4bd a739 3d3d 8ff0 25bd c0cf d03d
000002b0: a3d4 e4bc 83f9 0e3d 0ffa d2bb a9ab 8c3d
000002c0: 59ed a23d 7848 2b3e f411 3fbc 60ee 763d
000002d0: 7ae6 58bc 2c50 62be ec89 cb3d 3fe0 213e
000002e0: 3daf f8bd 1aa3 fcbd d54f bebe 20ad 643e
000002f0: 69ab 0b3e 5205 83be 1998 27be 03fb 8e3b
00000300: e64b c8bc d001 153c f123 123d 9094 bf3d
00000310: beaf 443d 0f62 a3bc af95 f7bd 377e 3e3a
00000320: d368 9c39 c0a5 25bd 37c9 bf3a c099 cdbd
00000330: 10f2 a03b 191b 2a3a 167b bb3d 11dd c480
00000340: 79f1 6300 02f3 5781 99f1 2880 2029 f93d
00000350: 7099 3501 f5e5 7300 4c7b 2401 b9b8 3b00
00000360: 2ced 2a3d b2a7 3e81 859c 9f80 57b5 b800
00000370: e449 1d01 7d5e e2bb 97ee e580 3464 7f01
00000380: cc52 4380 9fdd 7500 165e dfbc b6b2 0601
00000390: ed01 d080 bd77 3681 ed42 0681 ecea 693d
000003a0: 4f94 3a81 b7f6 fb00 aab2 c680 3f29 8300
000003b0: 1c18 b33c 23ed fa80 0cd6 0b80 1947 8700
000003c0: bc14 5c80 db99 eabc 2879 7980 afe2 cd00
000003d0: dbfa d100 96c6 5a81 2c16 19bd 9226 3c01
000003e0: c7f8 c800 6460 9c01 ff81 aa00 4e2f 163d
000003f0: 880d 8980 84a1 c600 7822 6b80 807d 7b00
0.17491692 -0.00093555235 -0.084419094 0.29685724 0.00010647094 -0.08558102 -0.013837466 -0.0010257517
0.02827176 -1.9576556e-38 -2.786193e-38 2.950039e-38 -7.473101e-39 0.008606227 1.6003427e-38 2.8924605e-38
2.9313264e-38 -2.2620318e-38 0.017305741 3.0234382e-38 1.360779e-39 -2.4676115e-38 5.017716e-39 0.02489515
2.891028e-38 -1.946605e-38 8.237e-39 -2.3464415e-38 0.031213501 -1.5161601e-38 3.3034216e-38 -2.0670845e-38
-8.42457e-39 0.019881422 -2.8636274e-38 2.3121419e-38 4.112338e-38 -2.7923456e-38 -0.0046480643 -2.6870545e-38
-1.0508205e-38 4.2362012e-38 3.0561162e-38 -0.03690615 1.9588248e-38 -4.0061313e-38 -9.631946e-39 -5.355816e-39
-0.011493303 3.9413464e-38 -2.1010523e-38 -1.2823813e-38 9.743464e-39 -0.029993584 1.2729261e-38 4.92363e-39
-3.3847367e-38 -4.075064e-38 -0.057241827 -1.4602218e-38 3.0556532e-38 -2.7890834e-38 -4.1315895e-38 -0.014874745
2.4434043e-38 3.519507e-38 2.4299115e-38 1.7718873e-38 0.05469413 0.06255574 0.058629364 0.0002929258
-0.0074863196 -0.00083265826 -2.4855628e-05 -0.0040800935 -0.013051785 0.0327056 0.1048926 -0.018240176
0.031468626 0.16823828 -0.032136288 -0.07355602 -0.0726865 -0.21160944 -0.07676868 -0.07419255
0.17640054 0.0616786 -0.05643469 -0.15816057 -0.04494258 -0.061662994 -0.04885306 0.0013091218
0.03131927 0.0009383925 0.010140613 -0.10418241 -0.0025566148 0.108444475 0.054025944 9.0323374e-05
0.04271662 0.0013652153 0.00053497264 0.0655072 6.324699e-39 -4.4185743e-38 4.363132e-39 2.731207e-38
0.04684324 -2.7208536e-38 -3.0392118e-38 3.194926e-38 -9.193562e-39 0.21954393 4.6228797e-38 9.285811e-39
-3.0495626e-38 -2.4808224e-38 0.19573534 -1.6697004e-38 -1.2856213e-38 2.042687e-38 2.4960876e-38 0.08861539
2.7791577e-38 -2.689501e-38 -1.9247005e-38 -7.596602e-39 0.36194485 2.723382e-38 1.7572406e-38 2.2371656e-38
3.060746e-38 -8.9478985e-05 -6.769154e-39 2.2246354e-38 -5.310473e-39 -2.8600193e-38 0.045603216 -4.428278e-38
4.1769832e-38 4.0586962e-38 1.925308e-38 -0.1881339 3.3636606e-38 -1.6557745e-38 -2.8677136e-38 -4.3751884e-38
-0.2145136 8.88949e-39 -4.6607125e-38 2.9805285e-38 1.4682221e-38 -0.15498759 -4.485209e-38 -2.779258e-38
-1.1517112e-38 -4.360446e-39 -0.121752195 -3.5718352e-38 -4.3959344e-38 -1.0862496e-38 2.5567346e-38 -0.1188384
-0.096136436 0.04619756 -0.040512618 0.10195875 -0.027933424 0.03490592 -0.0064385007 0.06868679
0.07955427 0.16726863 -0.011661995 0.060285926 -0.013238544 -0.22100896 0.09938416 0.158082
-0.12142799 -0.12335797 -0.37170282 0.22331667 0.13639607 -0.25589997 -0.16366614 0.004363419
-0.024450254 0.00909467 0.035678808 0.09354508 0.048019163 -0.019944219 -0.12089097 0.0007266732
0.0002983274 -0.040441275 0.001463211 -0.10039091 0.0049116686 0.0006489023 0.09154336 -1.8079061e-38
9.178338e-39 -3.9663613e-38 -3.760089e-39 0.12166047 3.3354536e-38 1.0643575e-38 3.0210504e-38 5.48456e-39
0.04173009 -3.5017804e-38 -1.4657993e-38 1.6962784e-38 2.888936e-38 -0.0069082365 -2.1115919e-38 4.6907995e-38
-6.18268e-39 1.0824256e-38 -0.027266543 2.4740132e-38 -1.9102474e-38 -3.351403e-38 -2.465993e-38 0.057108805
-3.426921e-38 2.3139214e-38 -1.8247521e-38 1.2045246e-38 0.021862082 -2.3043943e-38 -1.086976e-39 1.2423297e-38
-8.456304e-39 -0.028637817 -1.1155558e-38 1.8907595e-38 1.9283609e-38 -4.0182755e-38 -0.03737466 3.455782e-38
1.8456344e-38 5.7443663e-38 1.5658668e-38 0.036666207 -1.2586317e-38 1.8241369e-38 -9.838763e-39 1.1340787e-38

generative.shared_net.0.bias f4 [100]
00000000: 112e 04bc 841a 853d c2ed 923e d367 8e3c
00000010: b83a 933e ffa8 873e 2e04 a33e 89c1 653e
00000020: d957 bb3d 5dee 883e e000 673c 1e01 e63d
00000030: 7270 043d f2cc 893e 4617 953e 33f9 0f3e
00000040: 56c1 e53d ae88 863e 85b3 1d3e 07cb 003e
00000050: 13c7 143e 7759 843e 3124 703e 325a 443e
00000060: 9232 d73d 0f5b 4b3e 58fe fc3b 9e88 313d
00000070: 7b09 de3d 58d1 393e 5748 1abd b052 0b3e
00000080: e394 5b3e 169f 503e 9ffd 0b3e 0932 193e
00000090: ba0b 32bc 743e 8a3e d20d a3bd ba1f 3f3e
000000a0: be20 a5bd 7324 963e 617e b63d c935 223d
000000b0: 9fec 923d 52f3 603e 653e 16be 9050 ec3d
000000c0: 0add ae3d 46a9 0cbe 6fc7 4bbd 62f7 343e
000000d0: 5148 993d 61f7 243d 915d 543e b968 b23d
000000e0: e7c7 283e 8637 1a3e 1396 083c dfd1 453e
000000f0: a9c2 403e 731d f33d ba4d 083e 4fa7 273e
00000100: 23a2 ed3d d7b4 27bd cb2c 213e 7df0 4c3e
00000110: f566 833e f39a 303e 985a 993d 3643 413e
00000120: 908c 3e3e 093e 30bd 2b28 f23d deff 19bc
00000130: 1b34 903d a3ce 703e 3798 4f3e e090 233c
00000140: 3b97 233c 8a5d 303e 0e33 803d 9d7e ca3d
00000150: 7961 0b3e 84e3 133c d50f 1abd f570 803e
00000160: 01a7 093e 679f a6bc 3ab4 cc3d 1c30 703e
00000170: 272e 393e b565 d23d f610 fb3d 10e5 d13d
00000180: cf5e 593e 9893 4b3e bc78 fb3d ef32 4d3e
-0.008067624 0.06499198 0.2869702 0.017383492 0.28755736 0.2649612 0.31839126 0.22437109
0.09147615 0.26744357 0.01409933 0.11230682 0.0323338 0.26914173 0.2911932 0.14059906
0.112185165 0.26276153 0.15400513 0.12577449 0.14529066 0.25849506 0.23451306 0.19175032
0.105076924 0.19858955 0.00772075 0.04334318 0.10841652 0.18146265 -0.037666645 0.13605762
0.21443515 0.20373186 0.13670968 0.14960493 -0.010867054 0.27000773 -0.079616204 0.18664446
-0.08062886 0.29324684 0.089108236 0.039602075 0.07174038 0.2196782 -0.14672239 0.115388036
0.085382536 -0.13736448 -0.04975074 0.17672494 0.074844964 0.04027498 0.20738818 0.087113805
0.16482507 0.15060243 0.008336562 0.1931834 0.18824257 0.11870851 0.133109 0.16372417
0.11603191 -0.040943947 0.15739743 0.20013614 0.25664487 0.17246608 0.074879825 0.18873295
0.18608308 -0.04302791 0.11824068 -0.009399382 0.07041188 0.23516326 0.20272909 0.009983271
0.009984787 0.17223182 0.06259738 0.09887431 0.13611402 0.009026412 -0.037612755 0.2508618
0.13442613 -0.02033968 0.09995313 0.23455852 0.18084012 0.10273305 0.122590944 0.10248768
0.21227573 0.19880521 0.12278888 0.20038961

generative.shared_net.2.weight f4 [100, 100]
00000000: fb6f d63d a5b8 593e 56a2 d83d 85b1 4fbc
00000010: c267 9e3d 1551 c23d cc90 72bd 1c2f 6a3d
00000020: 57c6 39bd 77aa ed3d 37e4 f2bb b9b5 dfbc
00000030: 6e85 efbc b017 e9bd ed4d 053e 6351 633e
00000040: 1aa3 67be 4882 553d 8943 b3be b118 c8bd
00000050: cb4c dcbd 1d05 39be 20ad dfbe e0e3 1ebe
00000060: 2f94 143d 286c a4bd 071e 14be 4c63 3c3d
00000070: b900 013e 4689 afbe c6c7 1d3d f578 a13c
00000080: 771c 54bc 0056 703e 039f 97be df0c 5ebe
00000090: 63fb 3fbe 1fc1 743e e0ae 843d 7c41 8ebd
000000a0: 1cf4 e6bd f3db e03d 9e75 3abe 896d cbbd
000000b0: bf4b b83d 846c d7bd 540d b03c 478b a6be
000000c0: 288e 8dbd 61a3 d13d 2ab6 b03d 74dd 1d3e
000000d0: da68 2bbc 2734 40bd a7a9 b33d 9a99 e83c
000000e0: 18b8 82bd ed23 4bbe 4333 213e 9a8e 863d
000000f0: 363e 02bd 786a 793c 9e99 003e 997b a23d
00000100: 1b3a 0d3e fe29 063e a443 febd 2789 393e
00000110: ff56 22bd e89b 93be 3318 173e a9a6 8bbd
00000120: fb27 cc3c 83f8 bdbd 942c 19be 9b4d 273d
00000130: 5a01 563e f331 1fbe 310e f2bd 50d6 8fbe
00000140: e20a a4bd 5f71 b3bd 0083 c5bd 5e87 55bc
00000150: b6f8 8abe cbe2 5a3d 7760 133e 602a 333e
00000160: f731 c13d ceb2 aabe 9756 393e 9495 c63c
00000170: 97ba c7bc 1da7 15be f2a0 be3d e2f6 8b3c
00000180: dd42 553e b761 ae3d 414d 41be fca0 e9bd
00000190: 4c46 94bc 55ef 8e3d b122 d63c a48d cfbc
000001a0: ccde b7bd 062c 96bd 608a 2d3d b064 b33c
000001b0: 3825 8abd b98e bbbd fb8d bcbd f380 8c3d
000001c0: 3d6c 0cbb 68a8 47bd cec9 b2bd 9ea6 8b3d
000001d0: f3d3 1d3d 7a75 5d3c 1030 c63c 9fa6 f03d
000001e0: 724f 0a3e 7c08 803d 999d a8bc 4caa 353e
000001f0: 63af 1dbd f8eb 94bc 4005 943d bd80 773d
00000200: cac9 7d3d a3a6 b1bc 7017 893d 64b3 01bd
00000210: e77a 13bc 122e c63d 6bbb 8ebd cdab 05be
00000220: 7574 163e 611b 48bd 15ce d03d 9658 133e
00000230: 0a0b d73d 0d2e fe3d 8346 98bc 6249 0d3e
00000240: 4e95 d1bb 0f8e 803e 6df9 233d 17b6 9e3c
00000250: c8da 99bb a2ad 173e c6f4 8cbb 3657 843c
00000260: 328c e63d ac20 943d 6e6a d7bd 8ead 673c
00000270: 60e2 d23c f9e5 c5bb 46ab ed3c 3a3f 0a3c
00000280: 2595 e13c 6dcc 13be ebeb eb3d f237 7b3d
00000290: 7b62 9b3e 94bf 403e c014 303e 6e32 263d
000002a0: c1ef 093e 1cfc 533c 9828 21bc db30 bcbd
000002b0: 6fba 773d 9fe7 893c 3dd8 a83d 1df9 32be
000002c0: 3ae9 783c f961 343c 5012 983d 9550 62bd
000002d0: d940 3ebd bbf3 8b3d 6710 9239 3d32 cfbd
000002e0: 8101 483e 7430 e63d 54ce 09bc 0016 fd3c
000002f0: 8823 d3bd 0560 6a3d 826d 28be f585 8ebe
00000300: a31c 993d 7791 873d 8720 82bd 3fa6 063d
00000310: e4b9 243d 5d3e 21bc 15ca dab9 52a2 dc3d
00000320: 94d8 b5bd 959a 963c 2c96 523e 3952 1b3e
00000330: cab3 ad3d ce94 bf3d 73d2 af3d 4e3c 283e
00000340: 0b82 653d 3647 463d 41df 4e3c 9b76 02bd
00000350: e577 69bd 9c83 e73d 754b 0a3e 3625 a23c
00000360: 0136 683d a4eb 223e cac5 953d ec37 053e
00000370: d552 66bb 6f77 433e 99fa 68bd 02dd 133d
00000380: 56ab 623d ff3b 2b3d 0ec1 dbbc fc03 dcbd
00000390: 2f2c c73d 01df 8f3c 0739 073d 6aec 823c
000003a0: 3ad3 1e3e bedc 7f3d ac68 c2bd fa57 e4ba
000003b0: 0da2 e8bd 406a 48bc fe65 d6bd d8f3 023e
000003c0: 34d3 0bbc ed5a 6a3d 20cd 333d 49ce 0f3d
000003d0: f94d 653e 4f7a 873d d44c 62be e18e 17bc
000003e0: 556d 36bd cf43 cb3a a03e ddbd 771b 213d
000003f0: fe28 ea3c bca3 bebd a3b5 b5bd d3ba e93d
0.10470577 0.21261843 0.10577838 -0.012676601 0.07734634 0.094881214 -0.05922012 0.057173833
-0.045355167 0.11604779 -0.0074124592 -0.027308332 -0.029238429 -0.11381471 0.13018008 0.22199015
-0.22620812 0.0521262 -0.35012463 -0.097703345 -0.107568346 -0.18068357 -0.4368677 -0.15516615
0.03627413 -0.08028442 -0.1446458 0.045993134 0.12597932 -0.3428442 0.038520597 0.019710997
-0.01294624 0.23470306 -0.29613504 -0.21684597 -0.1874824 0.23901795 0.06478667 -0.06946084
-0.11277029 0.10979452 -0.1820893 -0.099330015 0.089988224 -0.105187446 0.02149073 -0.32528135
-0.0691188 0.1023624 0.08628495 0.15416509 -0.01046201 -0.046924736 0.08772593 0.028393555
-0.06382769 -0.19837923 0.15742211 0.06570168 -0.03179761 0.015223138 0.125586 0.07933731
0.13791697 0.13101956 -0.12415245 0.18118726 -0.039633747 -0.28829885 0.14755325 -0.06818897
0.024921408 -0.092759155 -0.14958411 0.040845495 0.20898953 -0.15546398 -0.11819113 -0.28093195
-0.08009888 -0.08761858 -0.09644127 -0.013032762 -0.27142876 0.053438943 0.14392267 0.17496634
0.09433358 -0.33339542 0.18099438 0.024241246 -0.024380965 -0.1461453 0.09308042 0.017085496
0.20826288 0.085147314 -0.18877126 -0.114076585 -0.018099926 0.06979243 0.026139589 -0.025336094
-0.08978042 -0.073326156 0.042368293 0.021898597 -0.0674538 -0.091580816 -0.09206768 0.068605326
-0.002142682 -0.04874459 -0.087298974 0.06818889 0.03853221 0.013516778 0.02419284 0.117505305
0.13506868 0.06251618 -0.02058296 0.17740744 -0.03849734 -0.018178925 0.07227564 0.06042551
0.06196002 -0.021685904 0.066939235 -0.03166522 -0.00900147 0.09676756 -0.06969341 -0.13053818
0.14692862 -0.048854236 0.10195557 0.14389262 0.105001524 0.12411127 -0.01858831 0.13797525
-0.0063959723 0.25108382 0.040032793 0.019373937 -0.00469527 0.1481233 -0.00430164 0.016154867
0.11257209 0.07232794 -0.10518347 0.0141405 0.02574271 -0.006039378 0.029012334 0.008437926
0.027536938 -0.14433451 0.11519607 0.06133265 0.30348572 0.18823081 0.17195415 0.040575437
0.13470365 0.0129385255 -0.009836338 -0.09189006 0.06048053 0.016834078 0.08244369 -0.17477842
0.015192324 0.011009687 0.07425368 -0.05525263 -0.046448562 0.06833597 0.0002785951 -0.10117004
0.19531824 0.112397105 -0.008411009 0.03089428 -0.103095114 0.057220478 -0.16448024 -0.27836576
0.07476165 0.06619542 -0.0635386 0.03287339 0.04021634 -0.009841529 -0.00041730763 0.10773148
-0.088791996 0.018384257 0.20565099 0.15168084 0.08481558 0.09354554 0.08585062 0.16429254
0.05603222 0.048407756 0.01262647 -0.031851392 -0.056999106 0.11304399 0.13505347 0.019793134
0.056692127 0.15910202 0.07313116 0.13009614 -0.0035144587 0.19088529 -0.056879614 0.03609944
0.05533918 0.041805264 -0.026825454 -0.107429475 0.09725224 0.017562391 0.03301337 0.015981872
0.15510264 0.062466376 -0.09492621 -0.0017421239 -0.11359034 -0.012232363 -0.10468672 0.12788332
-0.0085342415 0.05721562 0.043896794 0.03510884 0.22393025 0.066151254 -0.2209962 -0.009250374
-0.04453786 0.001550788 -0.108029604 0.039332833 0.028584 -0.093085736 -0.08872535 0.11412587

generative.shared_net.2.bias f4 [100]
00000000: d659 0a3e fd42 28bc 0570 ee3d 672a ddbb
00000010: 3320 7c3d b9a1 5bbd 80f8 5abd 5749 e53c
00000020: 98d7 883d fadc 86bd d74e 533e 4a5d 153e
00000030: e99c cfbb 04a5 023e 4009 403c 09b4 413d
00000040: cb4d 853d 4a33 c63d 3f0b b4bd cf6d 9dbc
00000050: 11fe fcbc bcb9 d23c f5da 2d3d 9218 733d
00000060: 4708 af3c cc81 5a3d d435 9c3d 73e5 333e
00000070: 2c06 843d 9b6e 223d 28fc d8bd 1afd eb3c
00000080: 2e13 b03d a822 36bc c970 743b ab28 373d
00000090: d351 183d d56c cdbc c87c 203e c9c0 e23c
000000a0: c0f0 f43d 67d0 193d 33fe ecbc c70c 2b3d
000000b0: 8454 0d3d a160 193d 6767 c93d 8e79 9d3d
000000c0: 880a 3bbc 6420 39be ecb9 e13c f25b 233e
000000d0: 589a d6ba bcf9 583d 2e8f 9a3d 1997 073e
000000e0: 29b8 e23d 72a5 ddbd 23c6 c53d 8180 903d
000000f0: 10d2 af3d f7d3 9b3d 3c97 833d b2ef 2f3e
00000100: 7ff1 3b3d f80a 9c3c 793b 11bc 093b cf3d
00000110: 1bba 5dbd d0fb fa3c deb1 b93d 8ab6 9c3d
00000120: 824c 80bd 11ee 383d 658d cf3d 2b88 4bbd
00000130: 87f7 263c 2461 a63d a515 06bd 4e1d bb3d
00000140: d46d 303d 5770 9dbc 3480 153e 9e67 d33d
00000150: bb19 e63a 613f 033c e224 9a3c 86ed af3d
00000160: 0e58 87bd be4e b23d 6e3b e0bb 625e 8b3d
00000170: a4a0 fd3d bf44 b63d df22 02bc 4a10 0ebe
00000180: 6933 d03d 7ac7 123d e9d6 b83d f682 d53d
0.13510832 -0.0102698775 0.1164246 -0.0067494395 0.061554145 -0.053621028 -0.053459644 0.027989073
0.06681746 -0.06585117 0.20635544 0.14586368 -0.006335844 0.12758261 0.011720955 0.047290836
0.065089785 0.09677751 -0.087912075 -0.0192174 -0.030882867 0.02572333 0.04244514 0.059349604
0.021366252 0.05334644 0.076274544 0.17567997 0.0644649 0.039656263 -0.1059497 0.028807212
0.08597408 -0.011116661 0.003729867 0.04471652 0.03718741 -0.02507631 0.156726 0.027679818
0.11959982 0.037552264 -0.028929805 0.041760232 0.03450443 0.037445668 0.098341756 0.076892
-0.011416085 -0.18078762 0.027554475 0.15953043 -0.0016372902 0.05297254 0.075468406 0.13241233
0.11070282 -0.10822572 0.09656932 0.0705576 0.08584988 0.076087885 0.0642533 0.1718128
0.045884605 0.019048199 -0.008864277 0.10118682 -0.054132562 0.030637652 0.090671286 0.07652004
-0.06264593 0.045148913 0.10134391 -0.049690407 0.010190851 0.08123997 -0.032735486 0.09136449
0.04307349 -0.019218607 0.14599687 0.10322498 0.0017555276 0.008010716 0.018816415 0.08590226
-0.06608592 0.08706425 -0.006843022 0.068051115 0.123841554 0.08899831 -0.007942884 -0.13873401
0.10166056 0.035834767 0.09025366 0.104253694
